results/nsf_double_pendulum/model.pt (torch, 278270 bytes, 16 tensors)

W.fNN.0.weight f4 [128, 4]
000000 5b 10 e0 bd 8b 34 6c 3e 90 a5 84 be 95 0b 9e bd
       -0.109406196 0.23066919 -0.25907564 -0.07717053
000010 a7 03 f5 be 5e 59 f1 bd eb 95 c2 3e 19 85 f0 3d
       -0.4785435 -0.117846236 0.38005003 0.11744136
000020 ce e0 5e 3e ea 26 7a be 12 37 14 be 1c c6 c9 bd
       0.21765444 -0.24428907 -0.14474133 -0.098522395
000030 1a 1a a0 be 94 3c e5 be f8 e6 19 be b6 42 dc ba
       -0.31269914 -0.4477278 -0.15029514 -0.0016804549
000040 81 bc b1 3d 03 8c 18 3f cd f2 44 be 80 d0 bb bc
       0.086785324 0.5958864 -0.19233246 -0.022926569
000050 5c 05 fa 3e 59 60 c8 bd 77 1f 86 bd 19 a1 e1 3d
       0.48832214 -0.09784002 -0.0654897 0.11017055
000060 18 1f 18 bf 79 10 df be cd 1c a6 3d 65 51 26 be
       -0.59422445 -0.43567255 0.08110962 -0.16241987
000070 ac ac 85 be 38 84 29 be d3 ed 76 3e 7f 99 0f 3e
       -0.261083 -0.16554344 0.2411416 0.14023398
000080 a3 46 76 bf 36 6d 8c be 6b 21 f3 bd 50 97 87 bd
       -0.96201533 -0.2742707 -0.11871608 -0.066206574
000090 64 e2 ee bd 0b 9e 24 3e 77 ca a6 3e 89 94 18 3e
       -0.11664274 0.16075914 0.32576343 0.14900412
0000a0 d8 73 1b bf 95 ee ae be de 45 c7 bd d4 4a de bd
       -0.6072364 -0.341664 -0.09730123 -0.10854116
0000b0 f3 bf f1 be 37 62 4a be 8e 6d 96 3e 1c 3a e0 3d
       -0.47216758 -0.19764028 0.2938046 0.109485835
0000c0 5a 8f b3 be 5b 0d 71 3e 60 4e 9f 3e 57 7c a1 3d
       -0.35070306 0.23540251 0.31114483 0.07885044
0000d0 2c f4 04 bf 44 2e e2 bd 62 c7 61 3d 31 b5 5b bd
       -0.51935077 -0.11043981 0.055121787 -0.053639594
0000e0 99 60 e5 3d fe 73 c9 be 5d 90 b1 be a6 b6 86 be
       0.11200065 -0.39346308 -0.34680453 -0.26311225
0000f0 da 2c 91 3e 14 f0 f5 3e b5 c7 b0 bd 68 0f 3c 3c
       0.28354532 0.48034728 -0.08631841 0.0114782825
000100 3d 8d ab bd 46 c5 89 3e 33 10 b0 3d 64 12 97 3c
       -0.083765484 0.2690832 0.0859684 0.018441387
000110 cd e9 9c 3d 5a 40 18 3f cb 13 4e bd 44 da 0c 3e
       0.076617815 0.5947319 -0.050311845 0.13755137
000120 0e 75 0c 3e ee c5 bc 3e ce ab 43 bd 8f 05 74 3e
       0.13716528 0.36869758 -0.047771268 0.23830245
000130 72 d3 ec be 82 87 58 bf b5 fd 85 3d ed ac 34 be
       -0.4625507 -0.8458177 0.065425314 -0.17644091
000140 a1 21 52 bf 75 72 53 3e bc 50 6a bd d6 24 04 be
       -0.82082564 0.2064913 -0.0572059 -0.12904677
000150 f7 36 8d 3e 0a 6e 94 be 5c f0 8b 3d f9 42 d3 bc
       0.27580997 -0.28990203 0.06832954 -0.025788771
000160 db 3c a6 be 4d 6a 65 bd ad 61 ca 3e c4 3e 43 3e
       -0.32468304 -0.05600958 0.39527646 0.19066912
000170 08 02 47 3f 12 84 ad be ad 26 67 3d 78 92 fe bc
       0.77737474 -0.33889824 0.05643337 -0.031075701
000180 cb f6 23 bf ed eb 00 be 86 d8 ea bd 97 50 65 bd
       -0.6404845 -0.12589999 -0.1146708 -0.05598506
000190 42 d0 72 bd 2e ec d1 3e 1b 99 3c be 21 aa a0 bc
       -0.05928064 0.41000503 -0.1841778 -0.019612374
0001a0 20 90 46 bf 2a 83 d7 bb cc a8 92 bd 08 79 68 bd
       -0.7756367 -0.0065769153 -0.07161102 -0.05675605
0001b0 4a 1a 49 3e ea 6d 14 bd c5 08 f9 bd 54 d5 28 3d
       0.19638935 -0.036237635 -0.12159876 0.04121907
0001c0 88 7a 3b bf fe 29 93 3e 6a de da bd 5f 6e b9 bd
       -0.7323384 0.28742975 -0.10686953 -0.09054255
0001d0 55 b2 5f be ed 46 01 bc 1a 81 2f 3e 14 24 88 3d
       -0.21845372 -0.007890445 0.17139092 0.06647506
0001e0 17 b2 9d bd 99 7f 47 bd 77 0a 8f 3e 0f 74 d0 3d
       -0.076999836 -0.04870567 0.27937672 0.101783864
0001f0 79 64 14 be 59 62 01 bf 35 b2 04 3e 37 0a 11 bd
       -0.14491452 -0.5054069 0.12958606 -0.035410132
000200 c7 1d 46 be b0 5d e2 be b4 55 03 3e 89 ea 11 bc
       -0.19347297 -0.44212103 0.12825662 -0.008906015
000210 1d 3a 20 be 22 2a 63 bf 85 95 92 3e fd 8e b1 3c
       -0.15647168 -0.88736165 0.286297 0.021674627
000220 37 79 a4 be 59 87 7f 3e 32 97 52 3d 4a 02 33 3d
       -0.3212373 0.24953975 0.051413722 0.043703355
000230 25 1e a1 3e d1 d9 0a 3f 2d 4d 0f 3e 39 e4 06 bd
       0.3146831 0.5423861 0.13994284 -0.032932494
000240 ab b9 6f bf 22 4e 20 be a7 6a b8 3c c8 36 18 bd
       -0.9364268 -0.15654805 0.022511793 -0.03716162
000250 bc 0c 29 3f 4c 8b 62 bf 99 fe fa be d9 b6 2f be
       0.66035056 -0.884938 -0.49022368 -0.17159595
000260 a3 1d 09 be ef 36 e4 3d 37 1c a0 3c be 53 d2 bd
       -0.13390212 0.1114329 0.019544704 -0.10269879
000270 80 93 a3 3e d0 ea 90 be 51 2a 00 be 34 29 60 bd
       0.3194847 -0.28304148 -0.12516142 -0.054726794
000280 9a ae 6b be e3 00 74 be 93 5a 2e be a4 c4 75 be
       -0.23015824 -0.23828463 -0.17026739 -0.24000794
000290 14 64 b4 3d 9f 7f 1b 3d 6d cd eb bd cf 13 9b bc
       0.08808151 0.037963506 -0.11513791 -0.018930344
0002a0 72 d8 7d bf ac 7f a5 be 50 fa b2 3d e3 98 c5 bd
       -0.99158394 -0.32323968 0.087391496 -0.096483015
0002b0 e5 9a 28 3f 5a c4 36 3f 37 e6 a6 bd 59 c0 de 3c
       0.6586135 0.7139336 -0.08149379 0.027191328
0002c0 e3 0e 0e bf 1c 50 86 be 00 c3 94 3d e1 38 28 bd
       -0.55491465 -0.26232994 0.07263756 -0.04106987
0002d0 0d 71 50 3e 96 ae 8d 3e fd d5 8c 3d 2f 13 c6 3c
       0.20355625 0.2767226 0.068767525 0.02417907
0002e0 c6 b9 cd 3e 5e 0c 6d 3e 0a 36 86 be cf db 95 bd
       0.40180796 0.23149249 -0.26213104 -0.07317316
0002f0 69 5c 23 bf 56 da 66 3e f1 3e 8d 3e 48 ec 11 3e
       -0.6381288 0.22544226 0.27587083 0.1425029
000300 96 c7 1f bd a6 ec bb 3e 97 4a 1c be 20 b6 11 bd
       -0.0390087 0.36703986 -0.15262829 -0.03557408
000310 e7 87 bf be fa 7c 2d 3f 51 3e 53 be d7 95 7c bd
       -0.37408373 0.67768824 -0.2062924 -0.061666336
000320 5c e4 e0 bd 7f dd 84 3e 6a ce 53 be 9d 2d 84 bd
       -0.10981056 0.25950238 -0.2068421 -0.064540125
000330 90 27 f7 bd f2 4b 90 bd f4 e5 24 bc 0b 80 35 3e
       -0.12068093 -0.070457354 -0.010064591 0.17724626
000340 ee 8d ec 3d 66 4a 1d be 62 c1 c0 bd 43 e3 1e bd
       0.115505084 -0.15360412 -0.09411885 -0.038790952
000350 56 80 50 3f 89 0b b7 bd 10 32 2e 3d 87 86 0e 3e
       0.81445825 -0.08937747 0.042528212 0.13918506
000360 60 3f 48 bf 11 ad e0 bd ea 4a 77 3d 5b 17 b7 bd
       -0.782217 -0.1097051 0.060374178 -0.089400016
000370 66 61 17 3c bf e5 b4 3e dc 0f 83 3e bd 99 c9 3d
       0.00923953 0.35331532 0.25598037 0.098437764
000380 e2 34 84 be 5b f4 93 3e ad 81 7b be 8b 47 42 be
       -0.25821596 0.28897366 -0.24561186 -0.18972604
000390 d1 9f 49 bd 6b 93 e4 bd b3 fa 0a bb 0a c6 0b 3e
       -0.04922468 -0.1116093 -0.0021206557 0.13649765
0003a0 51 06 d6 ba 10 0e 64 3d 40 07 8e 3d b0 ea 79 be
       -0.0016328787 0.055677474 0.069349766 -0.24405932
0003b0 b3 89 30 3f d0 11 87 be bc 4c 1d 3e fa 97 d0 3d
       0.6896011 -0.26380777 0.15361303 0.10185237
0003c0 6b 2b 43 3e 29 94 d2 3e 54 bb fa 3d f9 0b 3c 3d
       0.19059531 0.41128662 0.12242761 0.045909856
0003d0 45 a5 17 be fd fd 65 be df 4c ef 3d c6 c3 df 3c
       -0.14809139 -0.2246017 0.11684584 0.027315032
0003e0 11 c4 4d 3d 0f 6e 9d be 62 33 78 bd 5b 3f b6 bc
       0.05023581 -0.3074803 -0.060595877 -0.022247007
0003f0 76 b4 e5 3e a3 4a c0 3d be 08 d0 be c8 f0 07 be
       0.44864243 0.09389236 -0.4063167 -0.13275445

W.fNN.0.bias f4 [128]
000000 88 0e 0e be 14 df 3e be 40 e5 00 3e 68 9a 35 3e
       -0.1387273 -0.18639785 0.12587452 0.17734683
000010 10 26 7a be 30 0a 35 3d 74 5c 94 3e f0 c4 4b bd
       -0.24428582 0.04419917 0.28976786 -0.04974836
000020 a8 d1 1b 3e b8 f9 f6 bd b0 74 33 3e e6 71 b9 be
       0.15216696 -0.12059349 0.17524981 -0.3621971
000030 0e 89 96 be 74 f1 81 be 4c 44 eb 3e 64 c5 09 be
       -0.2940144 -0.25379527 0.45950544 -0.13454205
000040 00 f0 b2 ba cc 0f 78 be f0 8f ff 3e 0e 07 fa 3e
       -0.0013651848 -0.24224776 0.49914503 0.48833507
000050 60 12 c1 be 10 88 cf be d4 0b c2 be 00 08 1e bb
       -0.37709332 -0.40533495 -0.3789965 -0.0024113655
000060 c4 82 02 be 4e 90 a7 be e0 a3 37 be 18 77 c1 3d
       -0.12745196 -0.32727283 -0.17933607 0.094465435
000070 f4 c1 85 be 88 e6 e2 3d c8 d1 ea bd b0 18 78 be
       -0.26124537 0.110791266 -0.11465794 -0.24228168
000080 c8 ae 8c 3d 84 7f d2 3e 88 13 ad be 00 32 be 3c
       0.068692744 0.41112912 -0.33803964 0.023217201
000090 20 cf 3c be e4 36 fb 3e 26 e2 f2 be d2 6a f5 be
       -0.18438387 0.49065316 -0.47438163 -0.4793306
0000a0 30 42 fc 3e f8 f7 a1 be 20 53 c4 3d 40 c1 30 bd
       0.49269247 -0.31634498 0.09586167 -0.043153048
0000b0 78 b6 d7 bd 48 b5 e4 bd 3c ac a2 3e c0 c6 c3 3c
       -0.1053285 -0.11167389 0.3177203 0.023898482
0000c0 ce 3e f9 be d8 21 97 be 7c 8a 2e be ca d2 80 3e
       -0.4868073 -0.29518008 -0.17045015 0.2516082
0000d0 8e aa a5 be 2e 63 f1 3e 28 13 e4 bd 18 df b7 bd
       -0.32356685 0.4714598 -0.11136466 -0.08978099
0000e0 42 97 c8 3e e6 aa 80 3e 6a 1e d9 3e ee 14 94 3e
       0.391779 0.25130385 0.42406017 0.28922218
0000f0 34 51 1b be 54 d9 a9 be a0 60 18 bd 0e e0 d3 3e
       -0.15167695 -0.3317362 -0.037201524 0.41381878
000100 5c d6 2b be 1e 68 ed be 24 e2 51 3e 6c 35 f9 3e
       -0.1678099 -0.46368498 0.20496422 0.4867357
000110 00 c2 11 be 5a f9 d3 be 10 35 e8 be 90 4e 00 3e
       -0.14234161 -0.41401178 -0.45352983 0.12529969
000120 f0 12 1b bd d8 46 81 be a8 fb ce 3d c0 6f 42 3e
       -0.037859857 -0.25249362 0.10106593 0.18987942
000130 06 9a cb 3e fc c0 c6 3e b0 46 99 bd 7e bb e1 be
       0.39765948 0.3881911 -0.07484186 -0.44088358
000140 d8 53 e7 be 48 06 ef 3e 10 55 62 3e 40 2f 5f 3e
       -0.45181155 0.4668448 0.22102761 0.21795368
000150 20 7f dd be 5e 0f ed 3e 14 85 f2 3e da 21 e7 3e
       -0.4326105 0.46300787 0.47367156 0.45143014
000160 30 f5 d7 be 88 30 41 be 4a 11 b0 be 56 6c f2 3e
       -0.4217925 -0.1886617 -0.3438819 0.4734828
000170 04 ff 5b be 84 c1 69 be 28 1f 86 3e e8 d8 6c be
       -0.21484 -0.22827727 0.26195645 -0.23129618
000180 dc 2b 7c be 40 24 33 bd 50 da 44 bd 22 6b c7 be
       -0.24626106 -0.043735743 -0.04805976 -0.38948923
000190 46 6b d5 3e b4 da 61 be 30 9d 35 3e 24 aa de 3e
       0.41683406 -0.22056085 0.17735744 0.43489182
0001a0 e2 1a 81 3e 50 fa 90 3d c4 d1 d9 3e 08 a7 89 3d
       0.25215822 0.07078993 0.4254285 0.06721312
0001b0 54 e1 6c be 06 2d f2 3e 60 5c f2 3d 38 c6 f9 be
       -0.23132831 0.47299975 0.118340254 -0.4878404
0001c0 18 c3 11 be fe 60 ae be e2 72 e0 3e 00 1c a9 bd
       -0.14234579 -0.34058374 0.4383765 -0.08257294
0001d0 b2 59 e9 be 80 be 00 bd 74 c5 a0 3e 90 04 05 3e
       -0.45576245 -0.031431675 0.31400645 0.12990022
0001e0 8c e5 21 3e 50 34 3e 3d 18 e2 3e 3e e8 7f f9 bd
       0.15810221 0.046436608 0.18640935 -0.12182599
0001f0 78 ac 4b be 0e 49 ef be b0 da c0 be f0 e6 5d 3e
       -0.1989001 -0.46735424 -0.37666845 0.21670127

W.fNN.2.weight f4 [128, 128]
000000 23 28 f8 bc ac 55 8b bd 36 95 16 bc 85 fa ae bc
       -0.030292576 -0.0680345 -0.009190848 -0.021359691
000010 21 fa 5a bd cd 3a c4 3d 63 90 d7 bd 24 8e 9a 3d
       -0.053461198 0.09581528 -0.105255865 0.075466424
000020 01 98 96 bd fd 2f e2 bd e8 42 ec bc ef 7b 9b bd
       -0.07353211 -0.11044309 -0.028840497 -0.07591998
000030 e1 3d ec 3c 31 2a 98 bc ed 6e 9b bd cb 3f 99 3c
       0.0288381 -0.018574806 -0.07589517 0.018707177
000040 33 c1 5b bd 9d cb 79 3d db 2d f6 3b 4b 4d c2 3c
       -0.053651046 0.060985196 0.0075127906 0.023718497
000050 1e 61 b8 bd 21 df 17 3d 9a fe 9c 3b 2c d5 a7 bd
       -0.09002899 0.037078027 0.004791093 -0.08194956
000060 f9 6e 53 bd 69 d5 a1 3d 8a b2 5e bb 4e 71 01 3d
       -0.051619504 0.07902033 -0.003398093 0.031602196
000070 25 ef 9e 38 a8 9f 00 3e 09 1c 8c bd 14 60 cf 3c
       7.578571e-05 0.12560904 -0.06841285 0.025314368
000080 cf fc 26 3d c3 9c 9e bd 1d a4 e2 bd 2b c8 80 3d
       0.04076844 -0.07744744 -0.110664584 0.06288179
000090 fe 80 03 be 38 9f 88 bb db 70 3d bd 2d 11 48 3d
       -0.12842175 -0.004169371 -0.046250205 0.048844505
0000a0 ee 5e dc ba d3 49 9c bd a4 5a ee bd a1 90 80 3d
       -0.0016812959 -0.07631268 -0.11638382 0.06277586
0000b0 da ba c3 bc cd 94 5f 3d dd 38 e4 3c 69 86 f7 bc
       -0.023892809 0.054585267 0.027859146 -0.030215459
0000c0 3a 92 89 ba a0 3c 51 3d 4d a4 76 3c 86 2e 05 3b
       -0.001049585 0.051083207 0.015053821 0.002032192
0000d0 5d 91 a5 3d 8a 93 31 3e 3a 03 c0 bb 1c 55 0f be
       0.080843665 0.17341438 -0.0058597596 -0.1399731
0000e0 76 45 b6 3d 41 22 57 3a 65 d9 05 bd 43 8f db bc
       0.08899967 0.00082067034 -0.032678027 -0.026801711
0000f0 63 78 ba bc 94 d6 e5 bb 6d 70 c4 3a ff 43 15 be
       -0.022762483 -0.007014105 0.0014987119 -0.1457672
000100 f9 81 8b 3d 87 c5 1c 3d 9a 72 c0 bc 5e 91 29 3e
       0.068119 0.038274314 -0.023492146 0.1655936
000110 ff 77 44 bc 58 c0 1d 3c 7a 8a 9d 3b 03 6c 35 bd
       -0.0119915 0.009628378 0.0048077675 -0.04429246
000120 1d a5 0f 3b fb aa 67 bc 4d 09 25 3d e4 df b4 bd
       0.0021918484 -0.014139886 0.040292073 -0.08831766
000130 e2 ea 0d bd 81 fd aa bd 1d a0 26 3d 08 8a 37 3e
       -0.03464783 -0.08349133 0.04068004 0.17923748
000140 ac b8 c1 3c a3 23 ab bd 0a b3 ab bb 7d 56 96 3c
       0.023647629 -0.083564065 -0.005239849 0.018351788
000150 db 66 54 bd d2 5b 9a bd 43 83 f8 bc 5c 86 9f bb
       -0.051855903 -0.075370446 -0.030336028 -0.004868312
000160 0b f0 0b be 66 b8 ef bd 16 0c df bc fc e7 66 bb
       -0.13665788 -0.11705093 -0.027227443 -0.0035233488
000170 5b 70 86 bd 27 f5 c2 3d 50 a9 cc 3c 5c 34 07 bc
       -0.06564399 0.09519415 0.024983078 -0.00825223
000180 68 65 84 bc 5b 4a ba bd a9 cd 35 3d b0 3d 77 bc
       -0.016161636 -0.090962134 0.044385586 -0.015090391
000190 a2 3a 99 3b a4 53 bd 3b 4a ea b9 3c 92 bc 12 be
       0.004676179 0.005777793 0.022694726 -0.14329746
0001a0 31 80 a4 3d 39 15 ce 3d a3 24 64 3d 12 b3 99 3b
       0.08032263 0.10062642 0.055699002 0.0046905363
0001b0 ad 78 38 bc 12 ba 4c bd 09 d1 cd bd 90 d7 2f be
       -0.01125924 -0.049982138 -0.10049636 -0.17172074
0001c0 64 c8 95 3d 21 30 92 3c b8 63 21 bd 0e e6 49 3b
       0.07313612 0.017845215 -0.03940174 0.003080729
0001d0 40 41 23 bd 69 6c 10 3d cb b9 90 bd d4 4a 84 bd
       -0.03985715 0.035259638 -0.07066687 -0.06459585
0001e0 41 94 a3 3c 25 c6 8f 3c b6 4b 44 be 58 c3 b4 3b
       0.019968154 0.017550537 -0.19169506 0.005516451
0001f0 95 dc f2 3d 0f b0 2f 3d 72 3f f3 bd f9 8b 96 3d
       0.11858479 0.042892512 -0.118773356 0.073509164
000200 c8 03 0e be 14 8f ce bc 3f 1d 92 3c c4 49 7b bd
       -0.1386863 -0.02521471 0.017836211 -0.061349645
000210 4e 6c 7f bd 4b ee 93 bc 5a 98 5f bd 87 e9 5e bd
       -0.062359147 -0.018057963 -0.054588653 -0.054421928
000220 ba 72 7c 3d 24 ba db bd a3 ce 83 bc c7 5b e1 3c
       0.06163285 -0.10728863 -0.016089743 0.027509583
000230 17 3e f1 bd 48 87 96 3c f5 db a5 bc da ce 81 3d
       -0.11779421 0.018375054 -0.020246485 0.06338282
000240 38 39 01 bd ba 55 10 3e 21 0d 87 bd 57 b8 1f be
       -0.03154871 0.14095202 -0.06594301 -0.15597664
000250 b5 8b 2c 3d b5 1a 86 3d 57 34 a8 3d 17 e0 a2 3d
       0.042125423 0.06548063 0.08213108 0.07952898
000260 29 91 bc 3d a1 1c 7e bd 30 1f 34 bd 01 4b 7f bd
       0.092073746 -0.06203902 -0.043975055 -0.06232739
000270 01 af e3 bc 2c dd 19 be 80 37 97 3b 2d 8a 18 3e
       -0.02779341 -0.15025777 0.0046147704 0.1489646
000280 d6 a2 27 3d 75 6c 20 3d fc f2 bf 3d 7d 49 b3 3c
       0.040926777 0.039165933 0.093725175 0.021885628
000290 c9 f9 c3 3d a6 77 43 3d 90 91 e5 3d ff cd c5 bd
       0.09569127 0.047721528 0.112094045 -0.09658431
0002a0 f9 2e 89 bd 35 83 b5 3d 8c 5f 41 bd 0e a5 cd 3c
       -0.066984124 0.088629164 -0.04721026 0.025103118
0002b0 32 89 86 3d be a8 43 3a 00 bb ba 3d a4 5e ba bd
       0.06569137 0.0007463804 0.09117699 -0.091000825
0002c0 84 14 13 3d 91 d2 48 bc 9f 58 07 3c 5c 3b 39 3c
       0.035908237 -0.012257234 0.008260875 0.011305656
0002d0 19 09 03 3d 3f b6 1a be 32 8a e0 3d d4 5f 4c 3d
       0.031991098 -0.15108584 0.10963859 0.049896076
0002e0 b2 f5 ff bd 0b b0 27 bd f7 bc cb bd 5a e2 2b be
       -0.124980345 -0.040939372 -0.099481516 -0.16785565
0002f0 a6 a3 87 3e 93 c6 79 bc 6e 67 80 bd 49 72 57 3c
       0.2649204 -0.015245098 -0.06269728 0.013149806
000300 31 d3 33 3d b8 e2 e0 bc 82 0b c4 bd d2 66 26 3e
       0.04390258 -0.027451858 -0.095725074 0.1625016
000310 a5 6c 2d bb 1a 15 9c 3d c6 c4 07 3d 0a c0 20 3c
       -0.0026462462 0.07621212 0.033146642 0.009811411
000320 02 2e 99 bd 54 56 24 3d 33 2a af 3d 2c 02 b0 3c
       -0.074794784 0.04012139 0.08552971 0.02148541
000330 b0 ba e6 3d 5a 6f 52 3c 8d 62 63 3d 05 1f 30 3d
       0.112660766 0.012843931 0.055513907 0.042998333
000340 8a 71 44 bd cc 07 19 3e 44 26 c6 bc 2d 0b 06 be
       -0.04795984 0.1494438 -0.024188168 -0.130902
000350 dd 06 20 bd 1e 62 4c bd 32 08 96 3d 11 20 83 bd
       -0.039069045 -0.04989826 0.07325782 -0.064026006
000360 9f a8 9c 3d 60 7b f0 3c b9 3d 82 3d ff cc 09 be
       0.076493494 0.029355705 0.06359429 -0.13457106
000370 59 1a d9 3d d3 f5 73 bd 40 40 c0 bc 0b 40 ad bd
       0.106007285 -0.059560608 -0.023468137 -0.08459481
000380 32 5a bd 3d 39 4e 9e bd b4 38 48 3c 15 e4 80 3c
       0.09245719 -0.077297635 0.01222055 0.015733758
000390 03 4d 07 bd c0 67 a0 bd 92 d4 37 3d 44 d3 22 be
       -0.03303243 -0.07832289 0.044880457 -0.15900904
0003a0 87 28 65 bd f0 21 63 bd b6 4f 06 3e 65 9e bd bd
       -0.055946853 -0.055452287 0.13116345 -0.09258727
0003b0 95 bf c7 3c 99 2f 98 bc 8c 3c 17 3e 76 f4 9f 3d
       0.024383346 -0.018577384 0.1476919 0.07810299
0003c0 c2 cf 92 3c 3f 20 e5 bd 97 83 55 3b b6 df 48 bd
       0.017921332 -0.11187791 0.0032579654 -0.049041472
0003d0 d1 e1 c5 3d ed 03 73 3c 14 84 cc 3c 71 d1 ee bb
       0.09662212 0.014832479 0.024965324 -0.007288151
0003e0 f7 e3 ba bd 3b 8a 02 3e e6 04 23 3c d2 9c 9f 3b
       -0.09125512 0.12748043 0.009949898 0.0048709894
0003f0 47 0e 21 bd aa e5 0f bd e0 ba 4e 3c b8 ab c8 ba
       -0.039320257 -0.035131134 0.012617797 -0.0015309965

W.fNN.2.bias f4 [128]
000000 cc 91 20 bc 31 fa ab 3d 9d d1 35 bd 24 5f 3f 3c
       -0.009800386 0.083973296 -0.044389356 0.011680398
000010 ac fc bf 3c 93 79 a5 bd fa b2 61 3d 91 a5 7e 3d
       0.023435913 -0.08079829 0.055102326 0.062169615
000020 5e 6e 87 3d ef 6d 7a 3d ef 92 4c 3d 6a b5 5b bd
       0.06612848 0.061139997 0.049944814 -0.053639807
000030 9c 5a 82 3d 25 20 08 bd 3a 01 c8 3c 05 ac a4 bd
       0.063649386 -0.03323378 0.024414647 -0.080406226
000040 69 f0 25 bc ed 43 26 bd 6c 7d 2f bd a3 d7 86 bd
       -0.010128119 -0.040592123 -0.04284422 -0.06584098
000050 6e 9e fe bb 7b 72 60 bd 74 67 62 bd fd ba a7 bd
       -0.007770351 -0.054796677 -0.05527444 -0.08189962
000060 93 c4 6e 3d ac 61 83 3d 4b 24 5d bc be 53 49 3d
       0.058292937 0.06415114 -0.013497422 0.04915213
000070 2f 55 a4 3c 94 d0 5c bd 54 64 55 bc ac 03 1d 3d
       0.02006015 -0.053909853 -0.013024408 0.03833358
000080 b4 07 04 3a 47 d9 94 bb 0d 92 59 bc 35 49 7f 3d
       0.0005036548 -0.004542503 -0.01327945 0.062325675
000090 20 30 82 bd 7c ec e7 3b f3 4d 67 bd 49 c4 53 3d
       -0.06356835 0.0070777517 -0.056470823 0.051700864
0000a0 48 36 f2 bb 0c 8c 55 bd 02 a4 6f bd 25 3a 05 bc
       -0.0073917247 -0.052135512 -0.05850602 -0.0081315385
0000b0 0d fc d0 3b c1 de 5a 3d 59 db 91 bc 75 bb 3c bd
       0.006377703 0.05343509 -0.017804788 -0.04607721
0000c0 88 3c af bd e1 6d 72 bb 67 16 97 3d 14 14 a8 bd
       -0.08556467 -0.0036991762 0.0737732 -0.082069546
0000d0 14 a1 91 bc 5b 60 8d 3d 07 21 9f 3d e2 6e 6e bd
       -0.017777003 0.06903144 0.07769971 -0.058211215
0000e0 55 c4 9d bd 0e a0 b3 3d 13 a1 2d bd cd 61 c6 3c
       -0.07703463 0.087707624 -0.04238994 0.024216557
0000f0 ed 9a b3 bd c3 e7 25 3d d5 4c 24 ba 53 42 89 bc
       -0.08769784 0.04050423 -0.00062675524 -0.016755259
000100 d2 22 34 bd a5 74 1d 3d 3c b1 10 bd 69 c6 20 bd
       -0.04397852 0.03844132 -0.035325274 -0.03925172
000110 e4 d4 64 bd f2 d2 93 3d 35 e8 1e 3b cf c4 65 bc
       -0.05586709 0.07217969 0.0024247293 -0.014023974
000120 1d ad 8e 3c e5 07 75 3d d5 bc 97 bd b6 f6 6c 3d
       0.017416531 0.059821982 -0.07409064 0.05785247
000130 1b e0 25 3d ab 35 43 3d 08 0e 39 bc 88 08 58 bd
       0.040496927 0.047658604 -0.011294849 -0.05274251
000140 75 43 be bb 33 23 af 3d ac cb 56 bd 77 7b 96 bd
       -0.0058063813 0.085516356 -0.05244033 -0.07347768
000150 ef 85 b4 bc 84 84 13 3d fe e1 8f bd 8d c5 ef bb
       -0.02203652 0.03601505 -0.070255265 -0.007317251
000160 12 0f 8b 3c 2a f3 c0 bc 84 72 98 bd 33 98 01 bd
       0.01697496 -0.02355345 -0.07443717 -0.03163929
000170 3c 43 cb bc e9 a1 08 3d 63 a3 b4 bd 72 25 99 3c
       -0.024812333 0.033357535 -0.08820226 0.018694613
000180 32 12 2f bc 15 fe 76 3d ba b0 3c bd c4 f2 4b 3d
       -0.01068549 0.060300905 -0.046066977 0.049792066
000190 49 f7 fd ba d4 df e2 3c e4 6d ab bd be e0 43 bc
       -0.0019376065 0.02769462 -0.08370569 -0.011955438
0001a0 73 a3 62 bd 9c 27 48 3d 9c ad a0 bd 53 ef 86 3d
       -0.05533166 0.0488659 -0.07845613 0.06588616
0001b0 9d e9 9a bd 49 3a 69 3d 0b 76 00 bd db 53 9b bd
       -0.075640894 0.05694035 -0.031362575 -0.075843535
0001c0 db 1c ba 3b ae 5c 9a bd 17 5e e7 3c f3 b6 a9 3d
       0.0056797094 -0.075372085 0.028243108 0.08286848
0001d0 ee 2c 0a bc d2 ba 52 bd 57 cb 87 3d cd be 19 3c
       -0.008433564 -0.051447697 0.06630581 0.009383869
0001e0 b2 ef af 3b 22 c4 37 3d 52 a5 ac bd 09 e1 2d bd
       0.00536915 0.04486478 -0.0842997 -0.04245094
0001f0 02 61 eb 3c 17 13 98 3b 95 e4 0d bd 84 6b 84 bd
       0.02873278 0.0046409476 -0.03464182 -0.064658195

W.fNN.4.weight f4 [128, 128]
000000 08 c6 a1 3d 56 cc 3c bd eb 37 4b bd fc ac 97 bc
       0.078990996 -0.046093307 -0.049613874 -0.018515103
000010 6e 23 72 bd 7e 27 88 bd 60 f2 c4 bd cf c2 9d 3c
       -0.05911582 -0.066481575 -0.09616542 0.019257931
000020 85 03 05 3d e0 09 92 3d f4 0e a0 3d 12 4f bb 3d
       0.03247406 0.0713079 0.07815352 0.09145941
000030 38 36 34 3d 60 5e 2f 3d f2 34 9e 3d 28 57 04 bd
       0.04399702 0.042814612 0.07724942 -0.03230968
000040 33 9b 07 3d 25 da dc bc b1 7c 85 bd 2f 3a 1e 3d
       0.033106994 -0.026959488 -0.065179236 0.038629707
000050 36 cf 8e bd d1 14 ca 3a e3 bd 81 3c 49 ad dc 3c
       -0.06973116 0.0015417581 0.015837615 0.026938098
000060 58 c4 9b bc 89 09 a9 bd 23 10 9f bc 08 35 09 3d
       -0.019014522 -0.08253772 -0.019416874 0.03349784
000070 3a 59 bc ba 18 06 8b bd 08 26 99 3d b4 e0 92 3d
       -0.0014369853 -0.06788272 0.07477957 0.07171765
000080 da f2 fc bd 1d 57 23 bc 54 fe f6 3c 9c 67 34 3d
       -0.12351008 -0.0099695 0.03015057 0.044044122
000090 39 80 16 3c e4 47 8b 3d 3d 8e 93 bd 1b 17 31 bd
       0.009185844 0.068008214 -0.07204864 -0.043234926
0000a0 ee fc a8 3b 1e 84 52 3d ba d3 2f bd 68 3f 1a 3d
       0.0051571047 0.051395528 -0.042926528 0.037658125
0000b0 02 49 7e 3d c6 b9 58 bd ff e4 c0 3d 6e cf d3 bb
       0.062081344 -0.052911542 0.094186775 -0.0064639365
0000c0 9e 89 79 bc 6f f1 1b bd 82 d7 8e 3c 55 22 95 bd
       -0.015230564 -0.038072046 0.017436747 -0.07281939
0000d0 1a af 40 3c 5b 9a 9f 3d b0 6b 2e bc fc d7 2b bd
       0.0117604975 0.07793113 -0.010645792 -0.041954026
0000e0 ba 40 05 bd 50 86 68 bd 4b a5 39 3b 42 fe bc 3c
       -0.03253243 -0.056768715 0.0028327282 0.023070458
0000f0 1c e4 e6 bc cd 2d 6a 3c 1c ec 0d 3d a7 4a 9e bd
       -0.028184943 0.014293146 0.034649 -0.077290826
000100 fd ae 74 bc 68 24 d0 bb 2c ba 5b 3d 4e 7a d3 3b
       -0.014934299 -0.006351996 0.053644344 0.006453789
000110 e0 d1 53 bd a3 f9 4a 3d b9 62 b2 bd 24 ab 8d bd
       -0.051713824 0.04955448 -0.08710236 -0.06917408
000120 0b 0f c7 bc 9d be 54 bd 5c 56 a0 3d 08 cd 28 be
       -0.024299165 -0.051939595 0.07828972 -0.16484463
000130 39 f1 88 ba df b7 be bc a9 6e 6f 3d 98 44 b9 3c
       -0.0010447867 -0.023281036 0.058455143 0.022615716
000140 8d c9 98 3c 58 d9 95 bc 27 5c 43 bb 0b 49 3d 3d
       0.018650794 -0.018292114 -0.0029809566 0.046212237
000150 dd 51 a7 3d 68 db 4f bd c9 b0 2e 3d 66 46 e5 3b
       0.08169911 -0.05074635 0.042649064 0.0069969175
000160 3a 63 15 bd 42 97 14 bc 4b d2 88 bc 24 a7 47 bd
       -0.036471583 -0.009069266 -0.016701838 -0.048743382
000170 86 d8 a0 bd c3 4d 3b bc eb a2 a2 bd fd fc d2 bd
       -0.078537986 -0.011432114 -0.079412304 -0.1030216
000180 7b 76 89 3d 18 de e5 bc 8e cb 98 bb 19 c4 86 3d
       0.067120515 -0.028060004 -0.0046629375 0.065803714
000190 c0 07 e7 bc 2c f7 75 3b 7f ac e1 3c cb 5e f0 bc
       -0.028201938 0.003753136 0.027548073 -0.029342076
0001a0 b5 c2 1e bb 86 3c 22 bd f3 2e d2 3d 56 cf bf 3d
       -0.002422494 -0.0396085 0.10262861 0.09365718
0001b0 85 06 99 bc eb 43 7f bd d3 8c d4 3c b1 e9 a7 3b
       -0.018679867 -0.06232063 0.025946056 0.0051242937
0001c0 47 a5 b0 3d 5d 91 a3 bd d6 19 39 bd b3 ce 31 bd
       0.08625274 -0.0798671 -0.045190655 -0.043410014
0001d0 18 8a 06 3c 22 7e 72 3a fb 3d 16 3d 44 98 a3 bd
       0.008211635 0.00092503626 0.036680203 -0.07988027
0001e0 cd b5 59 bd 36 f4 d0 bc 99 83 01 39 fa f9 0f 3d
       -0.053151894 -0.025507074 0.00012351423 0.035150506
0001f0 f7 10 3a bd f6 31 db bd cb ed fe bd fb fe a2 3d
       -0.045426335 -0.10702889 -0.12447699 0.0795879
000200 71 aa 47 3c 54 b6 68 bd ab 7c 62 3d b6 d8 06 bd
       0.0121866325 -0.056814507 0.055294674 -0.032921515
000210 91 16 b3 bd 16 76 97 bd ee b1 4e bd 39 b9 26 3d
       -0.087445386 -0.0739557 -0.050462656 0.040703986
000220 03 4a 04 3d b0 62 06 bd 7d d9 83 3d b4 73 5d 3d
       0.032297146 -0.03280896 0.06437967 0.05406542
000230 6f 4e 79 bc 89 e7 82 bd 4d ad fa 3c ea 13 cc 39
       -0.015216454 -0.06391818 0.030600214 0.0003892475
000240 7b 67 5b 3c dc ca 9d bd 9b 63 ce 3b d8 1a 60 bd
       0.013391371 -0.07704708 0.006298495 -0.0547131
000250 d4 31 e3 bd 76 c4 02 bc 47 27 a6 3c a2 b6 c3 3d
       -0.11093488 -0.00798141 0.0202824 0.09556319
000260 8e f3 3c 3d d9 7a bc bd 6a 67 54 bc 0a d4 1b 3d
       0.04613071 -0.09203119 -0.012964109 0.038044013
000270 9d 6f 28 bd 0d 84 97 bc ff a5 00 bd 65 3a 7e bd
       -0.041122068 -0.018495584 -0.031408306 -0.062067408
000280 b8 46 bb bd 99 99 41 3c db db d4 3c 06 b1 81 bc
       -0.09144348 0.011816406 0.025983742 -0.015831482
000290 be d1 0e bd 63 b8 4b bd 11 d0 c2 3d 78 3b 9a bc
       -0.034867994 -0.04973639 0.09512342 -0.018827185
0002a0 62 61 8f 3d bd 70 73 3d 22 e1 e5 3c 4b 6d ae bd
       0.07000996 0.059433687 0.028061453 -0.0851694
0002b0 1e 2b 22 bc e7 09 69 3b 7d d5 ad bb bc 02 a7 3d
       -0.009897975 0.003555888 -0.005304991 0.081548184
0002c0 4e a4 22 bd 2b a0 c9 bc 35 92 3d 3c 86 44 0e 3d
       -0.039707474 -0.024612507 0.011570503 0.034733318
0002d0 0f a3 ce 3c 34 e0 42 3c b9 53 7b bd 34 6b 09 3d
       0.025224237 0.0118942745 -0.06135914 0.033549502
0002e0 4b 3f 29 bb 5b 5b 41 3c cd 28 cb 3c bd 0d 90 3b
       -0.002582508 0.011801566 0.024799729 0.004396169
0002f0 ee d7 9a 3d 85 1f b3 bd b6 ef a1 3d 74 ae 82 bd
       0.075607166 -0.08746246 0.07907049 -0.063809305
000300 da 22 7a bd 4b 28 30 3d 16 e0 ce bc 60 26 23 3b
       -0.061068393 0.043007176 -0.025253337 0.00248947
000310 29 3d b3 3d 1e 89 21 bd 7e 61 3e 3d 17 72 ac 3c
       0.087519 -0.039437406 0.046479695 0.021050496
000320 9b f5 8b bc 4f a9 0b 3d 08 6e 16 bd 9f 27 b4 bd
       -0.017084887 0.034097012 -0.036726028 -0.087966196
000330 aa c4 98 bd ac a0 68 3d 6c da 85 bc 13 f4 66 3d
       -0.07459386 0.056793854 -0.016339503 0.05638511
000340 ca cf 13 bc 2d d4 9d bc aa 75 7c 3d fe 7f 44 3d
       -0.009021709 -0.019266212 0.06163565 0.047973625
000350 0a 38 6c 3c c2 09 2c bb 1d 42 d9 3c ba 6e 3b bd
       0.014417658 -0.0026250933 0.026520783 -0.045759894
000360 33 a5 a1 bd 0a 63 73 bc 96 15 87 bd 05 09 3e bc
       -0.078928374 -0.014855156 -0.06595914 -0.01159883
000370 26 56 2f bc 49 8c 60 3d b8 91 26 3c 84 2b d0 ba
       -0.010701692 0.054821286 0.010166578 -0.0015882109
000380 e6 e0 2c 3b 87 dc b8 bd 3d 19 d5 bd 21 f8 56 bd
       0.0026379167 -0.09026437 -0.104052044 -0.052482728
000390 11 2a 50 bd 08 39 19 3d 14 b0 a8 bd 07 8c 7d bc
       -0.050821368 0.037407905 -0.08236709 -0.01547528
0003a0 84 36 6f 3d 8d d1 06 bd ef c4 d9 3c 6a 58 bc bd
       0.0584016 -0.032914687 0.026583163 -0.09196551
0003b0 c3 66 a5 bd b2 42 a0 3c dc dc 63 bc 30 4a 83 3d
       -0.08076241 0.019563053 -0.013907637 0.064106345
0003c0 d5 9d bc 3d ef c3 dc 3d 0d d6 86 bc 86 06 cd bd
       0.092097916 0.10779559 -0.01645949 -0.1001101
0003d0 37 6b c5 3c de d1 78 bb be 09 8a 3d 0f 33 6c 3d
       0.024098976 -0.0037966887 0.067401394 0.05766588
0003e0 7e a5 4a bd d7 37 fa 3c 8f e6 6c ba 8f c9 ee bc
       -0.049474232 0.030544205 -0.00090370415 -0.029148845
0003f0 a2 4e 6b bd 9a c6 71 3c 7d 34 7f 3c b9 3e bf bd
       -0.057448037 0.014756823 0.015576479 -0.09338135

W.fNN.4.bias f4 [128]
000000 5c c2 3a 3c d1 6c 2f bd 2e 5b 96 bd 1b 02 f3 3c
       0.011398878 -0.042828385 -0.0734161 0.02966409
000010 45 d5 8b bd db 6f 88 bd c7 89 50 bd 4f d0 c6 3c
       -0.06827787 -0.0666196 -0.050912645 0.024269251
000020 af 37 b1 3c 0a 2f 8d bd c6 67 fb bc df f3 b8 3c
       0.021632997 -0.068937376 -0.030689131 0.022577224
000030 b7 6c 68 bd 1f 8a 19 3d cc d0 aa bd 63 37 7a bd
       -0.056744304 0.03748524 -0.08340606 -0.061087977
000040 b0 6d 94 3c ba 2f 98 bc fe b7 97 bd 82 ed a9 bd
       0.01811871 -0.018577445 -0.074081406 -0.08297254
000050 16 ee 5d 3b 3b 6e 33 3d 4e b0 85 bd cb c3 a2 3c
       0.0033863834 0.043806296 -0.06527768 0.019868752
000060 b4 68 79 bd 2d f0 fc bc a2 aa 4e 3d ae 8f a3 3c
       -0.06089087 -0.030876243 0.050455697 0.019965973
000070 ca 03 86 3d cd 4b ad 3d 25 8a 92 3d e5 78 72 3d
       0.065436915 0.084617235 0.07155255 0.059197325
000080 17 cf 62 3d 92 76 7d bd 2b c1 75 3d c7 97 7c 3d
       0.055373278 -0.061880656 0.059998672 0.061668184
000090 bb ce 76 bc e1 71 0f bd 7f a8 0a 3d 14 17 7f bb
       -0.015063937 -0.035020713 0.033852097 -0.0038923668
0000a0 53 a4 5f bd 14 50 53 bd f1 db 3e 3d c7 85 92 3d
       -0.05460007 -0.05159004 0.04659647 0.07154422
0000b0 29 f1 15 3c 7f 44 8e 3d de 05 b4 bd c5 3f 6a bd
       0.009151735 0.06946658 -0.087901816 -0.05718972
0000c0 39 63 a2 3d 4a a2 d1 3c f1 09 05 3d e2 d7 c7 3a
       0.079290815 0.02559008 0.032480184 0.0015246833
0000d0 9e 66 aa bd aa 27 b3 3d d8 7f 39 bd f6 92 a5 3d
       -0.08320354 0.087478 -0.045287937 0.08084671
0000e0 3d 77 83 3d 34 50 37 bb 18 44 63 3d c6 cd de bc
       0.06419227 -0.0027971389 0.05548486 -0.02719773
0000f0 9f c4 39 bd 2d 00 b5 bd 5a a5 72 bd 86 d8 36 bb
       -0.045353528 -0.08837924 -0.059239723 -0.0027900054
000100 fc de 81 bd 97 cf ff bc be be 13 3d a6 6d ab bd
       -0.06341359 -0.031226916 0.036070578 -0.08370523
000110 d0 90 cc 3c f7 ac 3d 3d 9f b4 72 bd 8d 17 4f bd
       0.024971396 0.04630753 -0.059254285 -0.05055957
000120 cc 4b 3f 3d 9b bb 24 bd bd 5f 84 3d 24 10 b3 bb
       0.046703145 -0.040217977 0.06463573 -0.0054645706
000130 6a 3e 2c bd fe 46 91 bd f4 10 12 3d f5 da 51 3d
       -0.04205171 -0.07093619 0.0356607 0.051234204
000140 24 d5 69 3d 2e f2 16 3d 5b 3c 89 3c 71 ab a6 3d
       0.057088032 0.036852054 0.016752413 0.081381686
000150 64 6a d4 bc d2 b8 61 3d e1 96 9e 3d 57 e4 37 3a
       -0.025929637 0.0551079 0.077436216 0.0007014921
000160 ac 87 e8 3c 22 c9 f7 ba ee f6 51 3d 65 a5 96 3d
       0.028385006 -0.0018904547 0.05126088 0.07355765
000170 15 c1 1e 3d 28 18 41 bd b7 34 e5 3c 44 89 b2 bd
       0.038758356 -0.047142178 0.027979238 -0.087175876
000180 e1 a2 2c bb df 5e bc 3c 33 31 72 3c c7 8b a7 bd
       -0.00263422 0.022994457 0.014782238 -0.08180957
000190 5e 64 45 3c 9e a0 36 bd f6 64 a6 bd ec d8 89 3d
       0.012047855 -0.04458677 -0.081247255 0.06730828
0001a0 f5 71 78 3b 22 b8 b0 bd b3 55 a3 bc 2f 4f 9a bd
       0.003790972 -0.086288705 -0.019938326 -0.07534634
0001b0 c6 0b 68 bd 2e 4c 8d bd 9e f5 a7 3c 1e c8 81 b9
       -0.056651853 -0.06899296 0.020502862 -0.00024753896
0001c0 c1 ca bb bc 8f 98 df 3c c3 24 45 bd 2e 36 f0 bc
       -0.022923829 0.027294425 -0.04813076 -0.02932271
0001d0 2e b0 09 3d cf 3a 1e bd 3c 7c 23 ba 5f a6 85 bd
       0.033615284 -0.038630303 -0.0006236469 -0.065258734
0001e0 86 de 5c bd 12 50 22 bb 7e 0a 44 3d 43 5d 94 bd
       -0.053923152 -0.0024766964 0.04786157 -0.07244351
0001f0 ee 37 a7 bd 82 61 d8 bc 5a 6e 74 3c 91 6c 19 3d
       -0.081649646 -0.026413683 0.014918888 0.037457053

W.fNN.6.weight f4 [4, 128]
000000 bc d3 ed 3c 11 eb ff bb 83 07 88 bd 2c 95 16 3d
       0.029031627 -0.0078100045 -0.06642058 0.036763355
000010 09 c2 a8 bd f4 8c ff 3c b7 c7 6a 3d 42 eb 0b be
       -0.08240134 0.031195141 0.05731937 -0.13663962
000020 99 79 53 be a0 b8 99 3e ab 1f 93 bc db 17 af 3c
       -0.20651855 0.3002367 -0.017959436 0.02137368
000030 3e d9 84 ba 5b 22 dc bd 30 09 9e 3c 37 74 5f 3d
       -0.0010135544 -0.1074874 0.01929149 0.05455419
000040 7c 2f b0 3c 74 b1 7a bc 52 e9 53 3d a7 17 a4 3d
       0.021507017 -0.015301097 0.051736183 0.08012324
000050 be 35 43 3e 68 1a 6f bc 00 21 b6 3b dc a4 ac bc
       0.1906347 -0.014593698 0.005558133 -0.021074705
000060 5e 6a 16 3d 5c 99 2f 3d 2a 34 85 3b d0 f0 08 3e
       0.036722533 0.042870864 0.0040650563 0.13373113
000070 27 4c d2 3d 62 50 f0 bb 95 55 29 3e 22 ea 06 3c
       0.10268431 -0.007333801 0.16536553 0.008234533
000080 60 89 2c bd 29 0e 3b bd cc bf 49 3e 56 aa 7e 3d
       -0.0421232 -0.0456678 0.19702071 0.062174164
000090 80 9b 62 3d 14 92 85 bd 97 84 a2 3c 35 18 ea bb
       0.055324078 -0.06522003 0.019838614 -0.007143999
0000a0 8c 25 e8 bd c1 64 74 be 74 55 14 be ce e3 10 bc
       -0.113352865 -0.2386656 -0.14485723 -0.008843375
0000b0 82 15 86 3e bc 1f 79 3e 69 db 66 3a 3b fa 8a bd
       0.26188284 0.24328512 0.00088064984 -0.06786009
0000c0 a5 2a 09 be aa 48 86 3d 97 d6 cf bd e3 15 8d bc
       -0.13395174 0.06556828 -0.10148352 -0.01722235
0000d0 94 e4 9c 3d e9 37 1d 3a b1 4b c9 bc fa 1a 9f bb
       0.07660785 0.0005997406 -0.024572225 -0.004855511
0000e0 b1 65 05 3e 4f 7b ab 3c ef 16 a5 38 19 17 fc 3c
       0.13027073 0.020932822 7.872085e-05 0.030772733
0000f0 3f 9c c8 bc 21 1c 95 3d 94 f5 f4 3c 7e f5 03 bd
       -0.024488566 0.07280756 0.029902257 -0.03221654
000100 42 1b dd bb 4b 66 33 bd bf 98 05 3d 7d 09 1f 3d
       -0.006747634 -0.043798726 0.032616373 0.038827408
000110 cc 86 16 be f6 24 52 bd c5 24 ae 3d 10 51 e4 ba
       -0.14699858 -0.05130478 0.08503107 -0.0017419178
000120 69 95 1b 3d 7a 00 91 3d 84 cd 56 bd 29 0b ab be
       0.037984286 0.07080169 -0.05244209 -0.33406952
000130 60 52 7e 3c d8 ec 7b bd 10 70 0f be 65 f5 9a bc
       0.015522569 -0.06150517 -0.14007592 -0.018915841
000140 c7 30 00 3d b8 2d a1 3d 2a 97 a6 ba d8 71 49 be
       0.031296518 0.07870048 -0.0012709845 -0.19672334
000150 c6 03 82 3e 0a 17 64 3e fb a1 6d bd 7c 98 b4 bc
       0.25393504 0.22274414 -0.058015805 -0.022045366
000160 8a 62 52 be 43 2e aa be 40 1f b6 ba 1a 78 ae bd
       -0.20545402 -0.3323842 -0.0013894811 -0.08519001
000170 8a 35 20 3c 95 f3 fd 3b c9 dd 9e 3b bf d0 b9 3d
       0.00977839 0.0077499845 0.004848216 0.09073018
000180 7e b7 a7 bc be 1c ba 3e de 1c 22 bd 75 4a af bc
       -0.020473238 0.36350054 -0.03957831 -0.021397809
000190 79 03 49 3d 44 c7 08 3e 7c d2 3d 3c b5 e5 d7 bc
       0.049075577 0.13357264 0.011585828 -0.02635465
0001a0 1a 7a ce bd f3 c3 b2 bd 5b 38 7a 3c 82 11 19 3d
       -0.10081883 -0.087287806 0.015272225 0.037370212
0001b0 96 c9 9e 3e 88 3f 31 bc 89 c2 6d 3d 37 bf 82 3c
       0.31013173 -0.01081837 0.05804685 0.015960319
0001c0 fd 17 60 bb af 10 8e bc c7 d8 b9 3c 4c f8 38 bc
       -0.0034193986 -0.01734194 0.022686375 -0.011289667
0001d0 c4 aa 05 3e 38 91 be 3c 89 6f 75 bd e3 ea 46 3d
       0.13053423 0.023262605 -0.05992082 0.04856385
0001e0 0d d7 e1 3c 63 81 0e bc 03 50 c3 3c 63 44 50 3d
       0.027568365 -0.00869784 0.023841863 0.05084647
0001f0 3c c9 94 bc a5 47 9c bd 2a d9 0a 3c 25 f7 d0 3d
       -0.018162362 -0.076308526 0.0084746275 0.10203389
000200 5d d4 0f 3d 12 ac c6 3b fd ae ca bc 9a 31 38 3c
       0.035114635 0.006062993 -0.024741644 0.011242295
000210 69 cd 48 3e de ad c7 bc 45 91 60 3d 6d 6b 2d bd
       0.19609608 -0.024374899 0.05482604 -0.042338777
000220 78 1c 10 be 80 2f e5 3d df 03 20 bd 68 58 ed bc
       -0.1407336 0.111907005 -0.03906619 -0.02897282
000230 b3 cc 8c bb 2b 79 7d 3a 46 dd bf 3c f9 05 fd 3d
       -0.004296863 0.00096692395 0.023420941 0.12354655
000240 63 66 43 3b 26 67 ef bc c5 06 0e bc 46 d8 8e 3b
       0.0029815666 -0.02922399 -0.008668606 0.004359278
000250 50 54 01 bd dd 6e 76 3d 60 35 3b bd 5f af 7d bc
       -0.031574547 0.06016432 -0.0457052 -0.015483706
000260 5b d5 31 3c b4 d8 6d 3d 11 cf 13 bd fc 95 1a 3e
       0.010854091 0.058067992 -0.036086146 0.15096277
000270 6b 1f 70 3d db fe 21 3d 4b 55 c5 3d c7 9e ac 3b
       0.058623713 0.03954969 0.09635409 0.005267951
000280 36 24 f5 bd a0 c0 aa 3d cb fe 78 3c 42 0e c6 3d
       -0.11969797 0.083375216 0.015197466 0.09670688
000290 f0 b9 8d bd 57 59 79 3d c2 22 01 be 3b c4 90 b9
       -0.069202304 0.060876217 -0.12610915 -0.00027612023
0002a0 85 1e 28 3d 27 df 8d bd 15 71 62 be 35 44 73 bc
       0.04104473 -0.069273286 -0.2211345 -0.014847805
0002b0 02 42 2b 3e 1b 83 76 3d 1e 1c 96 bc 2a 09 ee 3b
       0.16724399 0.060183626 -0.018323954 0.007264276
0002c0 ab f9 48 bd 11 e7 14 3c 80 0d 7d bd 0d 79 6e 3d
       -0.049066227 0.009088294 -0.061780453 0.05822091
0002d0 24 ea bc 3c a4 96 98 b9 c3 fb 45 3d 06 8d 11 bb
       0.023060866 -0.00029103935 0.0483358 -0.00222093
0002e0 39 e4 ac 3d 97 bc f5 ba 8d 16 15 3c a7 4d 9b bd
       0.084419675 -0.0018748221 0.009099615 -0.075831704
0002f0 f9 2c 0c 3d e2 19 07 3d 6e 0b 59 bd c8 80 ba bc
       0.034222577 0.03298367 -0.052989416 -0.022766486
000300 8e 67 a1 3c 6d 35 10 bc 31 ea a5 ba 62 eb fc bc
       0.019702699 -0.0088018 -0.0012658295 -0.030873958
000310 95 6e 9c bd 6f 91 fe 3c 8f c1 ba bd b8 08 ec 3c
       -0.07638279 0.031075208 -0.091189496 0.028812751
000320 15 b3 03 3d 8b 48 9c 3d 65 ea fa ba f9 81 0f be
       0.032153208 0.07631024 -0.0019143341 -0.14014424
000330 98 e0 b2 3b eb 75 6e 3d fc 66 99 bc e3 01 e9 3b
       0.0054589026 0.058217924 -0.018725865 0.0071108206
000340 d5 31 83 3d 9c d6 e9 3c ae 1e 23 3c 99 8f 7c 3c
       0.06405989 0.028544717 0.009956045 0.015415096
000350 89 3d 19 3e 3d 1b 54 3e a8 52 13 bd 61 89 2f 3c
       0.1496488 0.20713516 -0.0359675 0.010713906
000360 48 e8 e7 bd 15 e5 fc bd 6b 4b 33 bc b8 e7 d7 bc
       -0.11323601 -0.123483814 -0.010943274 -0.02635561
000370 a4 fe 0b bb cc 07 f4 bc d4 16 f1 bc bd 40 9b 3d
       -0.0021361494 -0.029788874 -0.02942983 0.07580707
000380 c1 95 e0 bc 29 52 29 3e 78 a8 de bc ca cf fe bc
       -0.027415158 0.16535248 -0.027179942 -0.03110494
000390 06 e3 14 3c ef 54 02 3e a2 3f da 3b 36 1f f2 bc
       0.00908733 0.12727712 0.0066604177 -0.029555898
0003a0 d9 32 d1 bc 72 73 ad 3d 5f ef 11 3d 8f 95 de bd
       -0.025536941 0.08469285 0.035628673 -0.1086837
0003b0 2b a6 d0 3d 4d 99 e1 3b 48 77 af bd d4 30 32 3b
       0.10187944 0.00688473 -0.08567673 0.0027189748
0003c0 82 5f 95 ba 88 35 1f 3a 62 2a a2 bb 38 38 b1 bc
       -0.0011396261 0.00060733454 -0.0049489 -0.021633253
0003d0 38 32 c6 bc d0 e9 94 3c 16 2a 2e bc 93 94 c1 bd
       -0.024193868 0.018177897 -0.010630151 -0.094521664
0003e0 6a 27 74 3d c1 28 76 3b c8 11 39 be 6a e8 18 bc
       0.0596079 0.0037560912 -0.1807319 -0.009332756
0003f0 e7 4d 29 bd 6d 3c 56 3c 4f e0 16 ba 8f e2 7b 3c
       -0.04133406 0.01307593 -0.00057554705 0.01537384

W.fNN.6.bias f4 [4]
000000 6d 5c 8b 3d f7 6d f2 3c 5b de 2e bd 49 13 3c bd
       0.06804738 0.029593451 -0.042692523 -0.04591683

grad_H.HNN.0.weight f4 [128, 4]
000000 91 17 4b bf 75 7b 13 3f 39 24 01 bf 36 f6 2d be
       -0.79332834 0.57610255 -0.50445896 -0.16988453
000010 89 38 d8 be 63 1e 4a 3f 96 0b 06 bf 62 c7 46 be
       -0.42230633 0.78952616 -0.5236143 -0.19411996
000020 8e 70 0e bf ac 91 a3 bf 60 6e 97 bc 5c b0 49 3e
       -0.55640495 -1.277883 -0.018485248 0.19696182
000030 9d 9d 09 3e d1 3a d3 be 97 0d 8c 3d 4b 99 2c be
       0.13439031 -0.4125581 0.068385296 -0.16855352
000040 52 e8 85 3f 78 09 3d bf c6 70 86 be 20 2d 0c be
       1.0461524 -0.73842573 -0.26257914 -0.13689089
000050 9a 9e d0 3e 6a 0f 7a bf 68 b3 b6 3e 88 dc a9 bd
       0.40746003 -0.9767977 0.3568375 -0.08294016
000060 f4 55 ce be 3e f9 84 bf fb 2c ee 3e 95 d9 10 be
       -0.40299952 -1.0388563 0.46518692 -0.14145501
000070 9d 59 57 bf 84 ec ff 3e 86 54 ac 3e f0 47 7a 3e
       -0.84121114 0.49985135 0.33658236 0.24441504
000080 81 54 ea 3e 89 6e 58 bf bc 28 93 bd 30 2a 17 be
       0.45767596 -0.84543663 -0.07185504 -0.14762187
000090 26 f0 36 3f f7 fd 81 3f 4f 36 3b be bf 39 83 be
       0.7146019 1.0155629 -0.18282436 -0.25629994
0000a0 b3 85 40 3f 5f 32 23 bf 12 f7 bf be 15 7d af 3e
       0.7520401 -0.63748735 -0.37493187 0.34275118
0000b0 77 d8 56 3f 8a 19 2a bf 5d d5 45 bd fc 11 6c 3e
       0.8392405 -0.6644522 -0.048299182 0.23053735
0000c0 56 ac 63 bf 85 44 18 3f 4a be 5c be 27 9d c1 bd
       -0.8893484 0.5947955 -0.21556965 -0.094538026
0000d0 61 c8 08 be ff 95 8a 3f 14 34 b1 bd a5 4d 25 3e
       -0.13357688 1.0827025 -0.08652511 0.161429
0000e0 51 89 0d be 31 5c 30 bf 80 ae e8 be 37 9a 84 bd
       -0.13821913 -0.6889067 -0.45445633 -0.06474727
0000f0 e7 06 3e bf 19 97 30 3f cb 71 31 3c ff c5 89 be
       -0.7422928 0.68980557 0.010830353 -0.26908872
000100 f6 b3 0b bf fa 9a 77 be d6 4b f9 3e 46 e6 83 3e
       -0.54571474 -0.24180213 0.4869067 0.25761622
000110 e3 a7 e8 3e a1 c6 65 bf c9 9d a4 3e 02 bc 2d be
       0.45440587 -0.8975621 0.3215163 -0.1696625
000120 1e 18 42 bf f1 b1 28 3f c2 8e 82 3e a9 36 54 be
       -0.7581805 0.6589652 0.2549954 -0.20723976
000130 9d e6 3b 3d 77 d9 42 3f 6b 60 9a 3e c0 74 ef 3d
       0.045874227 0.76113075 0.30151686 0.1169219
000140 59 86 29 3e 55 06 49 3f 7c da a7 3e a8 f0 8b 3e
       0.16555156 0.78525287 0.32783878 0.27332044
000150 7b da 0a bf f0 5f 88 3f ed 74 ca 3e 59 fe 98 3e
       -0.54239625 1.0654278 0.39542332 0.29881552
000160 e8 5e 84 bd a5 6e 48 bf a4 29 ad be 25 53 cd bc
       -0.064634144 -0.7829383 -0.33820832 -0.02506406
000170 27 2b 38 bf 7d 28 81 3f f3 d9 59 3d 40 dd bb be
       -0.71940845 1.0090481 0.05318637 -0.36692238
000180 38 8c 15 bf 38 7b 98 3e 9c 9f c3 be d7 35 0b bd
       -0.5841708 0.29781508 -0.3820771 -0.033986893
000190 d6 49 a2 3e cc e9 90 3f b6 d8 9a be 26 48 e6 3d
       0.31696957 1.1321349 -0.30243462 0.1124423
0001a0 06 8b cd bd d0 14 62 3f dd 0c 50 bd 7e 5b ea 3d
       -0.10036282 0.8831301 -0.050793517 0.11443232
0001b0 57 34 f3 3e aa 52 4a 3f f9 44 c5 3e 13 76 db 3d
       0.4750087 0.79032385 0.38529184 0.1071588
0001c0 3b 44 12 bf 04 22 8a 3f 0b f1 f7 be 93 dc cb 3d
       -0.5713536 1.0791631 -0.4842609 0.099541806
0001d0 8a e8 d7 be a2 fc 71 3f b2 9e 06 3e 77 76 a6 3e
       -0.421696 0.9452611 0.13146475 0.32512257
0001e0 11 d1 01 3f d7 a7 23 bf 81 ba fd 3d e1 14 1c be
       0.50709635 -0.6392798 0.123890884 -0.1524234
0001f0 a1 65 08 3f 6f e7 82 3f cb 13 a1 bd 47 c6 54 3e
       0.53280073 1.0226878 -0.07865103 0.20778762
000200 cc a0 10 bf 02 e7 41 3f e7 eb ed be 1b ba 94 bc
       -0.56495357 0.75743115 -0.46469042 -0.018155148
000210 08 49 16 bf 47 c9 39 3f 56 ea 0b 3c b9 c7 b0 be
       -0.58705187 0.7257275 0.008539757 -0.34527376
000220 ed 39 e6 3d 9c a2 6e bf 05 e4 56 3d d4 6a 05 be
       0.11241517 -0.9321687 0.05246355 -0.13029033
000230 27 9d 23 bc 31 9d 8c bf c8 6f 51 3d 77 b9 29 be
       -0.0099861985 -1.0985471 0.051131994 -0.16574655
000240 73 a6 ac be 38 2b 45 3f 8d 67 b5 3e c6 d3 88 be
       -0.3372074 0.7701907 0.35430565 -0.2672407
000250 e7 52 b2 be b4 8a 81 3f ab f0 da 3d 62 8b a6 3e
       -0.34828874 1.0120454 0.10690435 0.32528216
000260 ad 76 91 bc 39 f7 45 bf 28 61 55 3c c5 cc a6 3e
       -0.017756784 -0.77330357 0.013023652 0.32578102
000270 04 a8 55 3f 6c f1 21 bf 68 89 70 be 36 67 33 3e
       0.83459496 -0.63259006 -0.23489916 0.1751984
000280 82 63 02 3e cb 53 87 3f 18 66 04 bf 57 5c 2b be
       0.12733272 1.0572447 -0.5171828 -0.16734444
000290 de 97 93 bf d8 e5 0d be 17 17 66 3e 58 82 fb 3d
       -1.1530721 -0.1385721 0.22469746 0.122807205
0002a0 e8 f8 7f 3d 9c 4b 3c bf 54 4e a2 bd bf ce b7 3d
       0.062493235 -0.7355287 -0.07925096 0.089749806
0002b0 77 2c 22 bf 83 0f 6f bf 07 d8 92 3d 20 40 57 be
       -0.633491 -0.93383044 0.0717011 -0.21020555
0002c0 77 fc ef 3e 55 fb 96 3f 28 50 2b bd b8 8f 74 be
       0.46872303 1.179545 -0.04182449 -0.2388295
0002d0 b4 f1 97 be d6 02 a1 3f 31 1c ce be 46 9b e9 bd
       -0.29676592 1.257899 -0.40255883 -0.11406569
0002e0 9c 55 04 3f 51 4b 87 3f 75 ab 9c 3d 77 20 4a bb
       0.5169313 1.056986 0.0764989 -0.0030842104
0002f0 28 1b a0 bf af e2 8a 3d f0 e7 0d 3f 98 cd 9d 3e
       -1.2508287 0.06781518 0.55432034 0.30820918
000300 4d 68 e0 3e 08 95 39 3f bf 07 8a 3e 32 f7 80 be
       0.43829575 0.7249303 0.26959035 -0.25188595
000310 95 99 eb 3d d9 ff 8f bd 6b 45 01 bd 3e 04 c3 3e
       0.11503903 -0.07031221 -0.031560343 0.38089174
000320 9e 7a f0 be d2 d7 98 3e 41 39 2f bd be 4a 62 3e
       -0.4696855 0.29852158 -0.04277921 0.22098824
000330 10 c2 a8 3d b9 ba 6a bf 7a 07 c5 3e 2c b8 71 be
       0.082401395 -0.91691166 0.38482267 -0.23605412
000340 24 70 2f 3e fb e7 6d bf 0e a9 2f be 4f 90 a9 3d
       0.17132622 -0.929321 -0.17154333 0.08279478
000350 61 6b 10 be 04 b7 80 bf 84 86 49 be 1e 45 dd 3d
       -0.14103462 -1.0055852 -0.1968022 0.10804199
000360 eb 68 d4 3d 17 57 49 bf 54 64 6c be 7d f0 74 be
       0.10371574 -0.78648514 -0.23085147 -0.23919864
000370 f7 d9 04 bf 5a c3 91 3f 65 9b d1 be c9 4f 5b 3e
       -0.5189509 1.1387742 -0.4093887 0.21417154
000380 b1 7a 33 3f 5a 78 2a bf b0 e4 b4 3e 78 b4 f1 3d
       0.7010909 -0.6658989 0.35330725 0.11802
000390 c0 35 95 3e 7c d5 67 bf c3 97 d3 3e 6e e9 42 3e
       0.2914257 -0.90560126 0.41326723 0.19034359
0003a0 96 5c 6f bf e4 16 32 3f 9e 54 ca 3e be 29 b6 be
       -0.9350065 0.6956618 0.39517683 -0.35578722
0003b0 d9 dd 6a 3f ca 32 bb 3c c5 5d 57 be eb e1 da 3d
       0.9174476 0.022851367 -0.21031864 0.10687622
0003c0 f0 74 f5 be 3d 16 12 3f 48 98 3f be 12 b9 6f be
       -0.4794078 0.5706518 -0.18710434 -0.23410442
0003d0 11 12 f6 3e 47 29 3d bf 2d ad a7 3e c7 eb 49 be
       0.4806066 -0.7389111 0.3274931 -0.19718848
0003e0 d4 97 91 be f9 52 87 bf 73 b1 97 be 6f da c2 bd
       -0.28436148 -1.0572196 -0.2962757 -0.09514319
0003f0 0a ff 36 bd 0e 27 93 3f 3f c6 aa bd 93 5e c6 be
       -0.044676818 1.1496294 -0.08338594 -0.3874403

grad_H.HNN.0.bias f4 [128]
000000 3f ae 58 3d dd 9b 14 be 57 c9 2c be 33 55 71 3e
       0.05290055 -0.14512582 -0.1687368 0.23567657
000010 c6 49 9c 3e b2 a7 03 bd aa 57 14 bf 2b 29 d9 3e
       0.30525035 -0.03214235 -0.57946265 0.4241422
000020 9d f5 8c be a3 07 0a 3f e5 8f f3 3e 13 de 56 3e
       -0.27531138 0.539179 0.4757072 0.20983152
000030 36 1b 58 3d 85 d5 0b be 18 47 21 be 55 5f 87 be
       0.052760325 -0.1365567 -0.15749776 -0.2643992
000040 f4 87 8e be 5d 75 ab 3e 05 9f 18 be c3 d4 26 be
       -0.278381 0.3348798 -0.14904411 -0.162921
000050 50 4f a3 be 7c c2 74 be b9 a2 8e be 9e 95 af 3e
       -0.31896448 -0.23902315 -0.27858523 0.34293836
000060 ca d1 2c bd 4d b5 e7 b9 f0 8c e3 be 37 b0 b2 3e
       -0.042192258 -0.00044194833 -0.44443464 0.34900066
000070 81 18 3f 3d c5 b6 9f be 70 c4 a9 bd e4 20 8c 3e
       0.046654228 -0.3119413 -0.082894206 0.27368844
000080 1a cd 85 be 25 1c 0c be 61 ff a2 3d 66 91 2e 3e
       -0.26133043 -0.13682611 0.07958866 0.17047653
000090 03 bd 35 bd 60 6b 13 be 8a cc 0b 3f b6 bf d1 3d
       -0.04436971 -0.14396429 0.54608977 0.10241644
0000a0 70 21 6f be 86 3e 41 3f 5a b5 30 3e b5 c1 99 be
       -0.23352599 0.7548603 0.1725668 -0.300306
0000b0 04 63 3e 3e 9d 7f 0b bf 2f e4 98 3e 69 47 ad be
       0.18592459 -0.544916 0.2986159 -0.33843544
0000c0 61 ae eb 3c f2 7d c1 be 7f 31 b9 3e b9 69 dd be
       0.028769674 -0.377914 0.36170575 -0.43244722
0000d0 c5 8a 81 be c2 38 0a bd ec b9 44 bf ff 99 dd be
       -0.25301185 -0.033745535 -0.76846194 -0.43281552
0000e0 8c c5 50 bd 70 e1 cf 3d 07 7f f9 be 0b 2f d4 3e
       -0.050969645 0.10150421 -0.48729727 0.4144214
0000f0 71 48 e8 bc 73 56 fc 3e 68 94 13 3d 23 c6 03 bf
       -0.028354855 0.49284706 0.036030203 -0.5147421
000100 fc 9e e7 3e 5c 6d 16 bf 8b 7b 15 bf f1 6f 52 be
       0.45238483 -0.5876062 -0.58391637 -0.20550515
000110 2a cb 1b bf 80 2f 15 bd 5b 36 94 3e 5b 63 86 bd
       -0.6085688 -0.036422253 0.2894772 -0.06561919
000120 46 e4 76 3e 57 e3 af 3e fd 0a c8 3e 43 aa 78 bd
       0.24110517 0.34353134 0.39070883 -0.06070925
000130 c2 8c e4 3e 82 2d a0 3e 01 9b 44 be b5 88 e7 be
       0.4463864 0.3128472 -0.19199754 -0.45221487
000140 e1 3d db be fd 82 b2 3e b6 7c aa be 34 79 91 3e
       -0.42820647 0.3486556 -0.33298272 0.28412783
000150 9b 60 ee 3e 7b 51 d4 be f6 a0 8b be cf ef 8a be
       0.4655808 -0.41468415 -0.2727124 -0.27136084
000160 92 5e 7b be b0 46 0b 3f 94 68 d2 be 4c 9c ea 3e
       -0.24547794 0.54404736 -0.41095412 0.4582237
000170 40 94 db be c6 2f e6 3e b3 51 40 be 84 6e 7c 3e
       -0.42886543 0.44958323 -0.18781166 0.24651533
000180 32 60 ca 3e a6 73 67 3e 08 9a 73 3e 4f ae ef 3e
       0.39526516 0.2260271 0.23789227 0.46812674
000190 a2 80 74 3d 03 96 a1 bd 8b 8c 3d be c7 b9 65 3e
       0.059692986 -0.078899406 -0.18510644 0.2243415
0001a0 06 30 5b 3d 87 c4 a1 be 01 11 4d be 01 91 8c bd
       0.053512596 -0.3159525 -0.20026018 -0.06863595
0001b0 20 7d 0a bf f8 3a 8f bd 4f 73 c3 3a b4 50 f8 be
       -0.54097176 -0.06993669 0.0014911684 -0.48499072
0001c0 66 6e 8d 3e af f5 17 3f 57 ad 8f 3d e5 7b f2 be
       0.2762329 0.5935926 0.07015484 -0.4736015
0001d0 18 44 b7 3e 50 01 90 3e 4d b0 c1 be e0 33 17 3e
       0.3579414 0.28126 -0.3782982 0.14765882
0001e0 6a bf 08 3e 00 0d 60 3e 1c 7a 18 bf 3c 12 e9 bc
       0.13354269 0.21879959 -0.59561324 -0.028451078
0001f0 c6 fb dc 3e bb a7 6a be 25 29 1b 3d 7c a8 d0 be
       0.43160838 -0.22915547 0.037881035 -0.40753543
