results/ce_double_pendulum/model.pt (torch, 279358 bytes, 16 tensors)

WNN.WNN.0.weight f4 [128, 4]
-0.17935045 0.4686841 -0.27073458 -0.169119 -0.59416515 0.2413275 0.012300621 0.18009144
-0.34675246 0.41521972 -0.070980355 -0.022063758 -0.59381795 -0.47566748 -0.061341446 0.045590498
0.15665706 0.43443435 -0.3391309 -0.17784816 0.1339274 0.73312974 -0.026034806 0.0959485
-0.05278634 0.042708118 0.002984204 -8.513841e-05 -0.20588504 -0.2033465 -0.08007585 0.18812253
-0.2959558 -0.24908203 0.00848779 0.0025936307 -0.5780328 0.5340784 0.14963654 0.19046453
0.09177292 -0.15157609 0.04215692 -0.0463141 -0.32643905 -0.5936108 0.18789157 0.22374427
-0.5275961 -0.11882563 0.2510036 0.30160934 0.14608155 0.04868752 0.24790582 -0.14706244
0.093708046 -0.49752453 -0.07700887 -0.03043548 0.20017742 0.03267231 -0.24328882 -0.04554141
0.6450378 0.05237251 0.063107036 0.081779495 0.5704199 0.91691816 -0.2247989 -0.13081802
-0.08601105 0.4272099 0.26243833 0.1715903 0.2407254 -0.53470206 0.01755818 -0.07020092
-0.7477194 0.8850257 0.28461087 -0.18208587 0.08013382 -0.27406916 -0.00481341 -0.19921616
0.32200778 -0.28702465 0.12551077 0.20906515 0.419236 0.20056282 -0.43318444 -0.19502339
0.24908285 0.22523087 -0.24481516 -0.13870388 0.88594884 0.48282966 -0.22221579 -0.11704648
-0.5362714 0.43547896 -0.27696928 -0.13403611 0.057417847 0.008402865 0.0024083504 0.0010963021
-0.6865291 0.79710627 0.21330678 -0.13692996 -0.21853688 0.11539818 0.015704479 0.0004094899
0.18001187 -0.23828411 -0.17008322 0.055570263 -0.7542433 -0.48585668 -0.108194195 -0.11877344
-0.2892657 -0.5803386 -0.064994074 0.022134438 -0.18446644 -0.20908241 0.070253484 -0.006156425
0.4285654 0.1282544 0.20567265 0.20119308 0.50918794 0.5251012 0.2766226 2.8232158e-05
-0.60434633 -0.3607896 0.331323 0.046444535 -0.2677634 -0.19213574 -0.11137843 -0.09532719
0.30105993 0.4003498 0.11851084 -0.21986198 0.51935714 -0.5965801 -0.23132032 -0.19411083
0.30994827 -0.15261976 -0.11440278 -0.048217285 -0.11685594 -0.49448714 -0.17640817 0.13670996
-0.47990564 0.14880763 0.2056728 -0.0364786 0.6003733 0.15012982 -0.22588404 0.17638347
-0.009790369 -0.33710626 0.12546596 -0.054897957 0.06869633 -0.19377646 0.32231677 0.046560664
0.11533214 0.23589419 -0.044886816 -0.011178044 -0.6423631 0.44239467 0.282142 0.08701643
-0.53131944 -0.449182 -0.39369386 -0.23720512 -0.8340085 0.1482792 -0.25553936 -0.06942497
0.11548085 0.6056934 -0.17652096 -0.15233931 -0.4121963 0.3446287 -0.06640181 0.12995705
0.044920944 0.12105559 0.114047475 -0.11579837 0.17922851 -0.3641991 0.03706727 0.056671154
-0.47353905 -0.25627884 0.045938667 -0.14552306 -0.41134173 0.7855334 0.12658335 0.018823301
-0.6748511 0.48792103 -0.24830769 -0.091474496 -0.038018923 -0.09276252 -0.00238749 0.061271008
0.074907005 0.52974504 0.024516027 -0.013109618 0.22688723 -0.4284114 -0.08920795 0.039168634
0.23839097 0.93846166 -0.06169854 -0.030915475 0.3286523 -0.5720817 0.26081875 -0.25130355
-0.015091206 -0.16698368 -0.17793067 0.011325936 0.36162776 -0.25479075 -0.068686225 -0.024776194
00000000: a5a7 37be 5df7 ef3e b99d 8abe 882d 2dbe
00000010: 351b 18bf 8e1e 773e 8b88 493c e469 383e
00000020: 8a89 b1be ae97 d43e 265e 91bd 0ebf b4bc
00000030: 7404 18bf b08a f3be 2b41 7bbd 1abd 3a3d
00000040: b56a 203e 2e6e de3e 91a2 adbe d41d 36be
00000050: 4424 093e 64ae 3b3f f246 d5bc a680 c43d
00000060: 7d36 58bd b5ee 2e3d a392 433b 568c b2b8
00000070: 87d3 52be 113a 50be cffe a3bd 31a3 403e
00000080: 8587 97be 5c0f 7fbe 5f10 0b3c e7f9 293b
00000090: f5f9 13bf 5db9 083f 523a 193e 2209 433e
000000a0: 71f3 bb3d c336 1bbe bcac 2c3d dbb3 3dbd
000000b0: 0523 a7be e1f6 17bf a666 403e 381d 653e
000000c0: 8a10 07bf da5a f3bd 8b83 803e 8a6c 9a3e
000000d0: 6796 153e 916c 473d 06db 7d3e 8997 16be
000000e0: 01ea bf3d 89bb febe d4b6 9dbd d453 f9bc
000000f0: 4ffb 4c3e 66d3 053d b420 79be a189 3abd
00000100: 3221 253f 8f84 563d 433e 813d 027c a73d
00000110: 0a07 123f 26bb 6a3f af31 66be 29f5 05be
00000120: 9026 b0bd 42bb da3e 515e 863e 5eb5 2f3e
00000130: b880 763e 3ce2 08bf 2cd6 8f3c 80c5 8fbd
00000140: 8a6a 3fbf 0b91 623f 84b8 913e b874 3abe
00000150: 331d a43d cb52 8cbe cfb9 9dbb 52ff 4bbe
00000160: 34de a43e e5f4 92be e585 003e 2d15 563e
00000170: 1aa6 d63e 5760 4d3e 5aca ddbe 36b4 47be
00000180: 930f 7f3e eca2 663e d3b0 7abe 6408 0ebe
00000190: 8bcd 623f 7335 f73e 898c 63be 11b6 efbd
000001a0: 1549 09bf 19f7 de3e ebce 8dbe c340 09be
000001b0: fa2e 6b3d 2cac 093c 6ad5 1d3b cbb1 8f3a
000001c0: 5fc0 2fbf 280f 4c3f 186d 5a3e 5e37 0cbe
000001d0: 22c8 5fbe e255 ec3d aea6 803c ceb0 d639
000001e0: 0855 383e c000 74be 4c2a 2ebe a59d 633d
000001f0: 1716 41bf 35c2 f8be eb94 ddbd 7d3f f3bd
00000200: a21a 94be 1291 14bf 9d1b 85bd 4853 b53c
00000210: c5e4 3cbe b319 56be 0fe1 8f3d d6bb c9bb
00000220: ed6c db3e 1f55 033e da9b 523e 8f05 4e3e
00000230: 245a 023f 086d 063f 7aa1 8d3e 19d4 ec37
00000240: 71b6 1abf 6ab9 b8be 2ba3 a93e a03c 3e3d
00000250: 4918 89be 3bbf 44be 601a e4bd e73a c3bd
00000260: 8724 9a3e a6fa cc3e d0b5 f23d 8023 61be
00000270: 97f4 043f 79b9 18bf 3cdf 6cbe fdc4 46be
00000280: 8ab1 9e3e 5b48 1cbe 014c eabd 7d7f 45bd
00000290: 2b52 efbd 6b2d fdbe 58a4 34be b2fd 0b3e
000002a0: 31b6 f5be 0761 183e e49b 523e 966a 15bd
000002b0: 11b2 193f a2bb 193e 254e 67be de9d 343e
000002c0: c967 20bc 3199 acbe 267a 003e aedc 60bd
000002d0: a9b0 8c3d 566d 46be b406 a53e 65b6 3e3d
000002e0: 4233 ec3d 3f8e 713e 3ddb 37bd 1d24 37bc
000002f0: e871 24bf 8e81 e23e eb74 903e ac35 b23d
00000300: 8d04 08bf 2ffb e5be 3e92 c9be e6e5 72be
00000310: 9581 55bf 81d6 173e 0ed6 82be ae2e 8ebd
00000320: 3981 ec3d b90e 1b3f e9c1 34be d6fe 1bbe
00000330: 650b d3be 2c73 b03e acfd 87bd 7613 053e
00000340: 06ff 373d feeb f73d b991 e93d b227 edbd
00000350: ae87 373e 4e78 babe dad3 173d 0320 683d
00000360: b673 f2be fb36 83be 2f2a 3c3d ff03 15be
00000370: 629b d2be b818 493f 119f 013e 5333 9a3c
00000380: 0bc3 2cbf c9d0 f93e 5f44 7ebe fb56 bbbd
00000390: bbb9 1bbd 47fa bdbd 6f77 1cbb 4ff7 7a3d
000003a0: d868 993d 5f9d 073f d6d5 c83c b9c9 56bc
000003b0: 2055 683e bd58 dbbe a8b2 b6bd 4a6f 203d
000003c0: c31c 743e 063f 703f 9cb7 7cbd 7342 fdbc
000003d0: 1d45 a83e f273 12bf 098a 853e dcaa 80be
000003e0: 1b41 77bc c5fd 2abe 7533 36be 6b90 393c
000003f0: 4627 b93e ef73 82be 5dab 8cbd 72f7 cabc

WNN.WNN.0.bias f4 [128]
-0.21481755 -0.241857 0.075120635 0.23363416 -0.29599762 -0.057890687 -0.029415464 -0.027612926
-0.05234667 -0.16538016 0.0010441035 -0.35264093 -0.38334766 -0.45935822 0.08874396 -0.23489268
-0.01737506 -0.2823163 0.31569895 0.24521415 -0.5277477 -0.5256792 -0.55460787 -0.10747504
-0.18427593 -0.34073615 -0.30438972 -0.037738953 -0.2880928 -0.027045282 -0.12567592 -0.29420942
0.14047414 0.18603192 -0.49839902 -0.026903184 -0.29321703 0.2065765 -0.73684824 -0.6223923
0.12123099 -0.4462766 -0.10068092 -0.055174213 -0.12967038 -0.15570486 0.034804333 -0.18948197
-0.5396896 -0.31165025 -0.3026794 0.11327623 -0.51527673 0.3182849 -0.28362373 -0.03225449
0.24595201 0.03805214 0.0909288 0.26421732 -0.020480778 -0.30348215 -0.095626734 0.11311191
-0.23836257 -0.54425555 0.08483745 0.076949574 -0.37070408 -0.49822068 -0.56626785 0.027610864
-0.10254359 -0.2053844 0.08861573 0.08749325 0.3335185 -0.016920187 -0.06646774 -0.55725425
-0.57454056 0.37404475 0.0719306 0.07492246 -0.6418208 0.19899479 0.3711304 0.13085365
-0.59813386 -0.2623502 -0.3547132 0.11367791 -0.16707338 -0.36491534 0.03052839 -0.19607505
-0.355429 -0.017011883 -0.27005553 -0.4651385 0.018756872 -0.21771108 0.15594155 0.28060108
0.030171094 0.112035885 0.30409926 0.0041509443 -0.22639087 0.32484093 0.11080178 -0.61780345
-0.06996799 -0.32016584 0.24646176 -0.13195808 -0.6315203 -0.08408777 0.015552806 0.036602903
0.030766392 0.021142635 -0.026112622 -0.29234475 -0.3547354 -0.57635427 -0.49136698 -0.020211468
00000000: 22f9 5bbe 5da9 77be d9d8 993d cb3d 6f3e
00000010: 008d 97be c91e 6dbd b3f8 f0bc 8134 e2bc
00000020: 7669 56bd 6b59 29be 4dda 883a 5a8d b4be
00000030: 2546 c4be 0031 ebbe 65bf b53d b587 70be
00000040: 2456 8ebc c38b 90be 4ba3 a13e 6b19 7b3e
00000050: 791a 07bf e992 06bf c8fa 0dbf e01b dcbd
00000060: d4b2 3cbe f874 aebe f8d8 9bbe 2994 1abd
00000070: e680 93be 118e ddbc 30b1 00be 9ea2 96be
00000080: 74d8 0f3e 277f 3e3e 282e ffbe 1164 dcbc
00000090: 8b20 96be ca88 533e 16a2 3cbf 1a55 1fbf
000000a0: f447 f83d 5e7e e4be cc31 cebd 5bfe 61bd
000000b0: 50c8 04be 1871 1fbe fd8e 0e3d 9007 42be
000000c0: 1929 0abf 9f90 9fbe cbf8 9abe 5efd e73d
000000d0: 2de9 03bf 3df6 a23e 2137 91be 491d 04bd
000000e0: d8da 7b3e 90dc 1b3d e138 ba3d 7e47 873e
000000f0: 4ec7 a7bc 0362 9bbe f3d7 c3bd 38a7 e73d
00000100: 5115 74be 5554 0bbf 42bf ad3d bd97 9d3d
00000110: edcc bdbe c816 ffbe eef6 10bf 2e30 e23c
00000120: 6002 d2bd 4a50 52be 2a7c b53d a92f b33d
00000130: f0c2 aa3e 349c 8abc 3d20 88bd 37a8 0ebf
00000140: 1715 13bf cb82 bf3e 5a50 933d f270 993d
00000150: 5e4e 24bf 4ac5 4b3e ce04 be3e 80fe 053e
00000160: 4d1f 19bf c452 86be f89c b5be f7cf e83d
00000170: 4915 2bbe 2fd6 babe ad16 fa3c e6c7 48be
00000180: cafa b5be 815c 8bbc b844 8abe a226 eebe
00000190: 03a8 993c a7ef 5ebe 24af 1f3e f2aa 8f3e
000001a0: 5f29 f73c 1273 e53d e6b2 9b3e a504 883b
000001b0: 02d3 67be 8d51 a63e 0bec e23d 5e28 1ebf
000001c0: 614b 8fbd c7ec a3be 7960 7c3e 0520 07be
000001d0: 50ab 21bf 3536 acbd 32d1 7e3c edec 153d
000001e0: cd09 fc3c 5233 ad3c 23ea d5bc 36ae 95be
000001f0: e19f b5be f48b 13bf 7494 fbbe 8592 a5bc

WNN.WNN.2.weight f4 [128, 128]
-0.044574987 0.01050019 0.03691836 -0.02752651 -0.048168775 0.08115242 -0.0703432 0.060821198
-0.07544877 -0.0024442237 0.023810461 -0.044674102 0.0719162 -0.075709194 -0.10193296 -0.04361605
-0.02418985 0.100570455 -0.06379614 -0.0032442287 -0.020101214 -0.024169736 0.058685195 -0.06611209
0.011194451 0.10207011 -0.006180576 0.05238493 -0.026804205 0.056443483 -0.09891552 -0.01378713
-0.05898834 0.0032184827 0.03476487 0.051469743 -0.026521537 -0.018409576 0.05955284 -0.04720732
0.06966039 -0.05414575 -0.026595622 -0.020742841 0.015446459 0.04323167 -0.03339751 -0.07208734
0.046270803 0.054946132 0.044196513 -0.06283001 0.07160177 0.04454824 -0.012308237 -0.061572883
0.07547737 -0.088172644 0.0071902694 -0.029271258 0.011552453 -0.0006734685 -0.09747071 -0.011373083
-0.045708816 0.0051828893 -0.021283846 0.05013274 -0.03729029 0.036357265 -0.020928193 -0.030200621
-0.08600099 -0.08587833 0.043502208 -0.02257879 -0.041145828 0.0075737913 0.043065876 0.113332294
0.08623314 -0.0861354 -0.03112432 -0.07062056 -0.031221129 -0.009793115 0.06930994 -0.089374095
0.076224804 -0.019483589 -0.030435821 0.053767163 -0.023944236 0.0038168507 -0.08178137 0.062476706
0.006387585 -0.042628348 0.010377567 -0.06628461 -0.09409967 -0.016178392 0.08971566 -0.049536012
0.02114876 0.04518689 0.022790277 -0.045780156 -0.015475073 -0.057316367 -0.1017493 0.03785175
0.036924664 0.07349312 0.0063075596 0.010251939 -0.034479152 0.053804617 -0.061273087 -0.061644766
-0.008431058 0.05312277 -0.11358388 0.04534337 0.021023126 -0.04129344 -0.024411732 0.0640659
-0.08517875 -0.034734786 0.022630902 -0.1140963 0.035399124 0.04382828 0.020260815 -0.08030887
0.06492648 -0.030232279 0.046871163 -0.09284028 -0.071593925 0.033656277 -0.03241636 -0.017379044
-0.056835007 -0.034064356 -0.033997413 -0.14206931 -0.0037117284 -0.000401842 -0.020773247 0.004069104
0.06108161 0.016434303 -0.04734134 -0.07190126 -0.077879414 -0.07228595 -0.04134129 -0.02118613
0.003119137 -0.058458745 0.06418991 -0.07136842 -0.024245458 0.040365186 0.06076294 -0.07802186
-0.0145005565 0.001381886 -0.07850718 -0.0452113 -0.012028895 -0.05708842 -0.006487651 0.039401285
-0.03499214 0.08030634 -0.016856197 0.028048942 0.15521877 -0.06833056 0.026236216 0.003980491
-0.022163149 -0.038192637 -0.021264313 -0.0643029 0.008850547 -0.028621336 0.044394854 -0.05734981
0.003119271 -0.01599088 -0.09409066 0.004851645 -0.0072139236 -0.06954039 -0.038589906 0.03145262
-0.028449198 0.04217309 -0.06030794 0.035650272 0.011482131 -0.044711825 0.034713082 0.06795639
-0.019150993 0.005547469 -0.034770925 0.0583291 -0.00047079858 -0.07583539 0.042941444 -0.08246654
0.0135037 -0.04355239 0.050931178 -0.10492868 0.03661896 0.0703514 0.015056805 -0.005315254
0.11312182 -0.02365968 -0.02978668 -0.041006196 -0.02217998 0.010343343 0.014608468 -0.052502085
-0.1088292 -0.018997874 -0.062556304 0.006437561 0.0401134 0.032101527 -0.08236344 0.01877518
-0.06123375 -0.10526779 -0.08516542 0.050250437 0.023642192 0.03470749 0.00908843 -0.07221345
-0.016096937 0.088214055 -0.0475184 0.05253417 0.020056713 0.08952203 -0.045096394 0.03854122
00000000: 4394 36bd fd08 2c3c b537 173d 477f e1bc
00000010: 9f4c 45bd 3d33 a63d 1810 90bd a61f 793d
00000020: e284 9abd 452f 20bb 280e c33c 31fc 36bd
00000030: cd48 933d 6c0d 9bbd 3ac2 d0bd bea6 32bd
00000040: cb29 c6bc e2f7 cd3d 8da7 82bd 209d 54bb
00000050: 4dab a4bc 9cff c5bc e35f 703d c765 87bd
00000060: ee68 373c 220a d13d 6e86 cabb 9591 563d
00000070: 7e94 dbbc 4831 673d 3894 cabd 6ae3 61bc
00000080: c29d 71bd 2eed 523b 9c65 0e3d f0d1 523d
00000090: b243 d9bc aecf 96bc aeed 733d 765c 41bd
000000a0: 1baa 8e3d efc7 5dbd 10df d9bc e4ec a9bc
000000b0: 2513 7d3c b113 313d d4cb 08bd 87a2 93bd
000000c0: 7486 3d3d 320f 613d 6707 353d 05ad 80bd
000000d0: f3a3 923d 3778 363d 7da8 49bc d933 7cbd
000000e0: e193 9a3d dc93 b4bd 5a9c eb3b 47ca efbc
000000f0: 8046 3d3c b58b 30ba b99e c7bd 2b56 3abc
00000100: 2b39 3bbd 3ad5 a93b 765b aebc fd57 4d3d
00000110: b4bd 18bd 5beb 143d 9a71 abbc 4b67 f7bc
00000120: 4921 b0bd fae0 afbd 5f2f 323d 28f7 b8bc
00000130: 8788 28bd 912d f83b d865 303d c31a e83d
00000140: 009b b03d c267 b0bd 6ef8 febc 83a1 90bd
00000150: 74c3 ffbc 4d73 20bc 5ff2 8d3d c409 b7bd
00000160: c01b 9c3d 0c9c 9fbc 8b54 f9bc f53a 5c3d
00000170: b426 c4bc 2124 7a3b fe7c a7bd 93e7 7f3d
00000180: f24e d13b 109b 2ebd ac06 2a3c 3ac0 87bd
00000190: 54b7 c0bd 8c88 84bc d8bc b73d 46e6 4abd
000001a0: 2a40 ad3c e315 393d adb2 ba3c f983 3bbd
000001b0: 298b 7dbc 91c4 6abd f061 d0bd 700a 1b3d
000001c0: 513e 173d 9083 963d a5af ce3b c0f7 273c
000001d0: 033a 0dbd 3b62 5c3d 7df9 7abd 397f 7cbd
000001e0: 6c22 0abc 4397 593d aa9e e8bd f8b9 393d
000001f0: b138 ac3c 4f23 29bd 1dfb c7bc fc34 833d
00000200: 3272 aebd 1046 0ebd 7164 b93c 52ab e9bd
00000210: acfe 103d 4885 333d 02fa a53c fa78 a4bd
00000220: 2df8 843d afa9 f7bc fafb 3f3d 0b23 bebd
00000230: d69f 92bd 2adb 093d 04c7 04bd 7f5e 8ebc
00000240: d3cb 68bd 1187 0bbd df40 0bbd 9e7a 11be
00000250: 7840 73bb 52ae d2b9 a82c aabc 1e56 853b
00000260: b630 7a3d 3ba1 863c fee8 41bd f840 93bd
00000270: 3e7f 9fbd a80a 94bd 7c55 29bd 898e adbc
00000280: 6f6a 4c3b 7072 6fbd 0076 833d 9b29 92bd
00000290: 699e c6bc f755 253d 90e2 783d edc9 9fbd
000002a0: be93 6dbc 6620 b53a 5fc8 a0bd 7c2f 39bd
000002b0: d814 45bc 8cd5 69bd 5c96 d4bb 3e63 213d
000002c0: eb53 0fbd a677 a43d 0216 8abc e5c6 e53c
000002d0: abf1 1e3e e5f0 8bbd 55ed d63c c76e 823b
000002e0: 7e8f b5bc e26f 1cbd 7f32 aebc 3db1 83bd
000002f0: e201 113c 4b77 eabc 61d7 353d a2e7 6abd
00000300: af6c 4c3b 4eff 82bc 9bb2 c0bd 8cfa 9e3b
00000310: c762 ecbb 316b 8ebd 7310 1ebd 76d4 003d
00000320: 4b0e e9bc b1bd 2c3d 7505 77bd 0506 123d
00000330: 8c1f 3c3c bf23 37bd 4e2f 0e3d b82c 8b3d
00000340: 8be2 9cbc 8bc7 b53b f56b 0ebd 7fea 6e3d
00000350: 84d5 f6b9 964f 9bbd 5ee3 2f3d 38e4 a8bd
00000360: 9f3e 5d3c fe63 32bd 369d 503d d9e4 d6bd
00000370: c3fd 153d 6514 903d d1b0 763c 952b aebb
00000380: 6aac e73d f2d1 c1bc 3203 f4bc 1df6 27bd
00000390: cab2 b5bc 2077 293c 5b58 6f3c 6d0c 57bd
000003a0: d8e1 debd 6ea1 9bbc 851d 80bd 2df2 d23b
000003b0: f34d 243d e47c 033d 2aae a8bd 68ce 993c
000003c0: 3ed0 7abd a496 d7bd 356b aebd 67d3 4d3d
000003d0: 45ad c13c 7129 0e3d a3e7 143c a5e4 93bd
000003e0: b9dd 83bc 92a9 b43d a7a2 42bd 122e 573d
000003f0: fa4d a43c 5357 b73d ffb6 38bd 66dd 1d3d

WNN.WNN.2.bias f4 [128]
-0.045665555 0.037080016 -0.016853113 -0.0070483037 -0.009578628 -0.11687748 0.048457406 0.11945884
0.10102346 0.02684773 0.019528912 -0.06881582 0.05968093 -0.13952878 -0.006164795 -0.106314376
0.027141858 -0.04835339 -0.07019234 -0.12293595 -0.0660123 1.5142081e-05 -0.05527444 -0.12949722
0.030744022 0.019901568 -0.07718316 0.03170689 -3.300189e-05 -0.07695504 -0.032778416 0.02046602
-0.024114082 -0.02015995 -0.0014033706 0.037532438 -0.07744578 -0.012930658 -0.054731756 0.011174082
0.027875947 -0.055899024 -0.11081737 0.0014599994 -0.023998043 0.07684398 -0.029956616 -0.065317415
-0.1080356 0.046606146 0.081291616 -0.06870398 -0.0070177903 -0.0005021448 0.06641158 -0.063001834
-0.10488044 0.09102305 -0.041642215 0.0026870854 -0.11357585 0.029396482 -0.13595918 -0.034600582
-0.06487375 0.0075507653 -0.060031336 -0.044679027 -0.07908719 0.02458022 -0.017384985 -0.014023974
-0.018564984 0.044503648 -0.084222145 0.0018398191 0.04117608 0.061632924 -0.031955015 -0.06513254
-0.059389476 0.034675423 -0.06389364 -0.13489114 -0.044457525 0.04594242 -0.05483459 0.008264517
-0.040134616 -0.14801204 -0.14006762 -0.04837315 -0.057836607 -0.004734907 -0.092976056 -0.042847004
-0.035631977 0.023763321 -0.087178834 0.014434391 -0.023739265 -0.00048994395 -0.10280887 0.0036693693
-0.08561025 0.007838802 -0.108976014 0.060452282 -0.09201937 0.073162615 -0.07102259 -0.091065854
-0.02284527 -0.0844542 -0.0066767237 0.07754822 -0.035528343 -0.05193857 0.05582038 0.084461235
-0.027984124 0.0026890629 -0.19693017 -0.07274775 0.053739224 -0.029877957 -0.11493291 -0.07532957
00000000: ce0b 3bbd 37e1 173d 8a0f 8abc 75f5 e6bb
00000010: aeef 1cbc 765d efbd 467b 463d d6a6 f43d
00000020: 63e5 ce3d c5ef db3c 19fb 9f3c 4fef 8cbd
00000030: fe73 743d a2e0 0ebe 0c02 cabb 5abb d9bd
00000040: 9a58 de3c 340e 46bd 00c1 8fbd d8c5 fbbd
00000050: 7531 87bd be0a 7e37 7467 62bd eb9a 04be
00000060: e3da fb3c 9d08 a33c 3412 9ebd 15df 013d
00000070: 826b 0ab8 9b9a 9dbd a942 06bd 5ba8 a73c
00000080: e58a c5bc 7b26 a5bc 4ef1 b7ba 9dbb 193d
00000090: e59b 9ebd 1cdb 53bc 682e 60bd 7f13 373c
000000a0: 195c e43c 60f6 64bd 38f4 e2bd 735d bf3a
000000b0: 8b97 c4bc 6060 9d3d 9467 f5bc 23c5 85bd
000000c0: c541 ddbd 16e6 3e3d 387c a63d acb4 8cbd
000000d0: 7ef5 e5bb 5ea2 03ba cb02 883d 1b07 81bd
000000e0: 8ecb d6bd 4b6a ba3d 0791 2abd d019 303b
000000f0: 759a e8bd e4d0 f03c e238 0bbe 57b9 0dbd
00000100: 87dc 84bd 696c f73b 6be3 75bd 5b01 37bd
00000110: 77f8 a1bd 755c c93c f56a 8ebc cfc4 65bc
00000120: 9815 98bc 7549 363d a97c acbd 1626 f13a
00000130: 40a8 283d ce72 7c3d 43e3 02bd 3664 85bd
00000140: 6142 73bd d107 0e3d abda 82bd e720 0abe
00000150: 1819 36bd 1e2e 3c3d 3c9a 60bd e667 073c
00000160: 3264 24bd 7890 17be e36d 0fbe ed22 46bd
00000170: 14e6 6cbd 4727 9bbb 3b6a bebd 5780 2fbd
00000180: d6f2 11bd 4cab c23c d18a b2bd 397e 6c3c
00000190: d978 c2bc 956f 00ba 758d d2bd cd79 703b
000001a0: 6d54 afbd 526e 003c d12e dfbd d09c 773d
000001b0: a774 bcbd 48d6 953d 4b74 91bd bc80 babd
000001c0: 0126 bbbc 53f6 acbd 6bc8 dabb 9ad1 9e3d
000001d0: 2b86 11bd 8abd 54bd e9a3 643d 03fa ac3d
000001e0: f63e e5bc fd3a 303b 10a8 49be c6fc 94bd
000001f0: a91d 5c3d 9ec2 f4bc f261 ebbd 6446 9abd

WNN.WNN.4.weight f4 [128, 128]
0.09281591 -0.008657423 0.033761904 0.060959738 -0.010136805 -0.07176437 0.25198662 -0.18025506
0.0812885 0.05915957 0.035715517 0.09166631 0.057054237 0.044437323 -0.7100382 -0.03213605
-0.02354644 -0.04719237 0.010225695 0.07978847 -0.06438834 -0.0845605 0.015837615 -0.119972356
-0.04466376 -0.040589944 0.028135983 0.0030563725 0.024157716 -0.06270691 -0.03148304 0.054730825
-0.20497483 -0.0099695 0.13678677 -0.24362174 0.043060616 0.06109436 -0.034735773 -0.06854112
-0.11461848 0.091085516 -0.028663682 0.008688228 0.079447426 -0.0533843 0.09319109 -0.004217858
0.031092143 -0.06910627 -0.029717216 -0.46800497 0.1145999 0.055447415 -0.039983884 -0.041954026
0.006249603 -0.042294636 0.10201378 0.019370046 -0.005216057 -0.18012828 0.03273031 -0.5515516
0.0008391601 -0.024472686 0.033717267 -0.013916206 -0.06605035 -0.050140068 -0.14226319 -0.06917408
0.0184372 -0.051939595 0.07134792 -0.021380134 -0.0049367333 0.07445966 -0.63487583 0.019855917
0.01795834 -0.03152881 -0.056751993 0.07440807 0.099222116 0.015843563 0.12617217 0.31952554
-0.07500568 -0.028634757 0.005987026 -0.051409375 -0.041195527 0.0027192764 -0.07824262 -0.08268922
0.012392096 -0.027550522 0.04624715 0.057504404 0.059893508 -0.020529788 0.005372806 0.16650306
0.012885046 -0.06258774 0.07392056 0.03850006 -0.03211499 -0.07526554 0.067919716 0.04349616
0.090743914 -0.050983336 -0.06132273 0.29061508 -0.018004507 -0.020835945 0.03465514 -0.061535977
-0.057489865 -0.0025768809 -0.0021576514 0.00062879204 0.13815264 -0.070659764 -0.07656493 0.08690336
-0.032365102 -0.024313198 0.022238785 -0.053433582 -0.086067684 -0.088539526 -0.031151606 0.022915343
0.035973407 -0.046342306 0.009489837 0.0066911103 0.06910554 -0.07382865 0.0604534 -0.02594939
0.030895932 -0.083845496 -0.03164841 -0.06974585 -0.049599066 -0.08646614 0.0202824 0.043245584
0.058491033 -0.06709995 -0.009528702 -0.030496053 -0.04098368 -0.040527128 0.006250613 -0.064447455
-0.073929094 0.011816406 0.06912148 -0.013172804 0.076738834 -0.058009923 0.04201769 0.0067416136
0.037639633 0.0030238 0.0145501355 -0.07024524 -0.019395692 -0.016316403 -0.006843842 0.05108261
-0.031575624 -0.050375417 -0.07270763 0.017565869 0.05446014 0.0013648967 -0.068170674 0.033549502
0.009505717 0.0435748 0.019950656 0.06990511 0.0663756 -0.06360922 0.058347367 -0.043323595
-0.08509797 0.07643467 -0.04884405 -0.003556038 0.06973953 -0.05922869 0.058934852 0.021050496
-0.002746662 0.034097012 -0.04267649 -0.04524545 -0.081421025 0.06764333 -0.042511154 0.054973684
0.0044533433 -0.011617211 0.06906421 0.041395705 0.040852632 -0.018812384 0.032151032 -0.09927503
-0.014980373 -0.008494517 -0.08714111 -0.02263768 0.02234677 0.06721072 -0.004794392 -0.045175396
-0.046405196 -0.06871307 -0.037680607 -0.03815274 -0.073997036 0.013500272 -0.053156298 0.009734238
0.058258265 -0.06654858 0.04995785 -0.09315999 -0.065530054 0.07204221 -0.0462297 0.060422733
0.08062354 0.020516414 -0.046895534 0.016496006 0.008893083 0.017824864 -0.002386311 0.0624229
0.0030327875 0.04003782 -0.06796409 -0.034846984 0.056937907 -0.014482931 0.02918892 -0.039961245
00000000: 4516 be3d ddd7 0dbc ec49 0a3d ebb0 793d
00000010: d714 26bc 33f9 92bd 6404 813e c894 38be
00000020: 967a a63d 4e51 723d 6f4a 123d 8cbb bb3d
00000030: b4b1 693d e903 363d 10c5 35bf 17a1 03bd
00000040: 77e4 c0bc c94c 41bd ac89 273c 2368 a33d
00000050: 09de 83bd 0e2e adbd e3bd 813c 11b4 f5bd
00000060: 59f1 36bd a441 26bd 6f7d e63c 6c4d 483b
00000070: 67e6 c53c 7b6c 80bd 5cf4 00bd 6e2d 603d
00000080: ece4 51be 1d57 23bc d511 0c3e fa77 79be
00000090: 5460 303d 143e 7a3d 1947 0ebd 495f 8cbd
000000a0: 18bd eabd 0b8b ba3d 19d0 eabc 1259 0e3c
000000b0: 55b5 a23d 7fa9 5abd f8da be3d f535 8abb
000000c0: f3b4 fe3c 9787 8dbd 8571 f3bc 599e efbe
000000d0: 5ab3 ea3d d41c 633d 24c6 23bd fcd7 2bbd
000000e0: 78c9 cc3b 243d 2dbd 9aec d03d eead 9e3c
000000f0: 75eb aabb 8c73 38be 3810 063d 7c32 0dbf
00000100: 15fb 5b3a f17a c8bc 1e1b 0a3d cc00 64bc
00000110: 6845 87bd ac5f 4dbd 71ad 11be 24ab 8dbd
00000120: 9c09 973c 9dbe 54bd dc1e 923d 6425 afbc
00000130: 52c4 a1bb 4e7e 983d 3987 22bf e0a8 a23c
00000140: 5e1d 933c 5a24 01bd c774 68bd 4263 983d
00000150: f734 cb3d 5cca 813c 4733 013e da98 a33e
00000160: 949c 99bd 7093 eabc d02e c43b a392 52bd
00000170: a4bc 28bd e335 323b ab3d a0bd f758 a9bd
00000180: 3808 4b3c a2b1 e1bc a76d 3d3d bd89 6b3d
00000190: e552 753d 162e a8bc 5d0e b03b c77f 2a3e
000001a0: cd1b 533c 002e 80bd aa63 973d 3db2 1d3d
000001b0: 028b 03bd d224 9abd 7e19 8b3d 0829 323d
000001c0: f2d7 b93d e7d3 50bd 8b2d 7bbd 80cb 943e
000001d0: 307e 93bc 25b0 aabc 8cf2 0d3d 260d 7cbd
000001e0: 7e7a 6bbd e3e0 28bb 6267 0dbb 85d5 243a
000001f0: e377 0d3e 11b6 90bd 13ce 9cbd 64fa b13d
00000200: 4591 04bd 792c c7bc 1d2e b63c 2cdd 5abd
00000210: 4144 b0bd 3654 b5bd a731 ffbc f5b8 bb3c
00000220: da58 133d 6ed1 3dbd 437b 1b3c 1a41 db3b
00000230: 3587 8d3d 7a33 97bd fc9d 773d d193 d4bc
00000240: 7719 fd3c 30b7 abbd c3a1 01bd ead6 8ebd
00000250: 6428 4bbd 2915 b1bd 4727 a63c 4822 313d
00000260: 4b94 6f3d b36b 89bd 461e 1cbc dcd2 f9bc
00000270: 81de 27bd c6ff 25bd f1d1 cc3b 07fd 83bd
00000280: 2368 97bd 9999 413c 908f 8d3d bfd2 57bc
00000290: 4029 9d3d d09b 6dbd be1a 2c3d c1e8 dc3b
000002a0: 042c 1a3d f22a 463b b163 6e3c bddc 8fbd
000002b0: b7e3 9ebc faa9 85bc 4f42 e0bb 003c 513d
000002c0: 7155 01bd 7456 4ebd bde7 94bd 4ce6 8f3c
000002d0: 9911 5f3d 55e6 b23a 119d 8bbd 346b 093d
000002e0: debd 1b3c 7d7b 323d 8f6f a33c 692a 8f3d
000002f0: eeef 873d 8d45 82bd a6fd 6e3d 1574 31bd
00000300: d847 aebd c889 9c3d b310 48bd 6b0c 69bb
00000310: 99d3 8e3d c899 72bd ac65 713d 1772 ac3c
00000320: 5701 34bb 4fa9 0b3d 8bcd 2ebd 4b53 39bd
00000330: 11c0 a6bd 9688 8a3d 2d20 2ebd 162c 613d
00000340: 5aed 913b 1d56 3ebc 8971 8d3d 8b8e 293d
00000350: 1755 273d 6e1c 9abc cdb0 033d b550 cbbd
00000360: 3d70 75bc 962c 0bbc 0a77 b2bd a872 b9bc
00000370: 9310 b73c c6a5 893d 461a 9dbb d609 39bd
00000380: 6013 3ebd 70b9 8cbd fb56 1abd 0c46 1cbd
00000390: c28b 97bd 3f30 5d3c 6bba 59bd 5a7c 1f3c
000003a0: 38a0 6e3d 9f4a 88bd 9aa0 4c3d aaca bebd
000003b0: 9f34 86bd de8a 933d 5b5b 3dbd d47d 773d
000003c0: f41d a53d 0a12 a83c 8815 40bd a222 873c
000003d0: 4bb4 113c 7305 923c a863 1cbb 28af 7f3d
000003e0: bbc1 463b b2fe 233d c230 8bbd b6bb 0ebd
000003f0: b937 693d d149 6dbc 9a1d ef3c 67ae 23bd

WNN.WNN.4.bias f4 [128]
-0.06072397 -0.0664659 -0.00062584656 0.047954254 -0.090210915 -0.07194996 -0.0830379 0.16107623
-0.03550954 -0.11038003 -0.047066607 0.10869086 -0.105713226 0.03475112 -0.09137478 -0.11419026
0.056848172 -0.03276735 -0.086312994 -0.08297254 -0.021035464 -0.027397018 -0.09803294 -0.019849567
-0.1051193 0.12862657 -0.014763452 -0.10747934 0.1118053 0.20414644 0.058702346 -0.076860234
-0.002765442 -0.014543396 0.15388773 -0.017271187 -0.04913028 -0.058858305 -0.01578175 -0.021278448
-0.054741003 -0.0822935 -0.019722708 0.008185338 -0.048675075 0.14546368 -0.1068563 -0.07143422
0.1402866 0.009554228 0.013623921 -0.02231053 -0.12190165 -0.016007267 -0.21069247 0.02672367
0.027464129 -0.1103178 0.008637019 -0.039296925 -0.09740038 -0.11093326 -0.08684775 0.04270331
-0.15606526 -0.12381146 0.008111569 -0.06873708 -0.034443583 0.05500692 -0.042033825 -0.081524216
0.03807323 -0.07859849 -0.0112518575 -0.08513139 -0.006665566 -0.101276726 -0.031973295 0.017540168
0.060721166 0.0028351967 -0.051685628 0.20042437 -0.06788542 0.104904346 0.08822205 -0.011757021
0.009148542 -0.0389142 -0.0024780023 0.024430446 0.04042387 -0.068170585 -0.016278394 -0.1814798
-0.036271457 -0.036557127 0.019046007 -0.10021292 -0.030463262 -0.07031917 -0.07721938 -0.02957188
-0.029883916 -0.102123134 -0.039659493 -0.124274425 -0.07247869 -0.06429723 -0.019112086 -0.042023715
-0.03675051 -0.03930644 -0.015389384 -0.0478323 -0.01855527 -0.06873699 0.037348513 -0.07151579
-0.08592949 -0.068257526 -0.0862579 -0.09799538 -0.077482425 -0.052444536 0.015599849 0.0077203205
00000000: b3b9 78bd 461f 88bd da0f 24ba ae6b 443d
00000010: 80c0 b8bd 805a 93bd c60f aabd 2bf1 243e
00000020: 7472 11bd ed0e e2bd eac8 40bd 5099 de3d
00000030: 2d80 d8bd 3157 0e3d b322 bbbd 95dc e9bd
00000040: a1d9 683d 0f37 06bd dec4 b0bd 82ed a9bd
00000050: 9152 acbc b66f e0bc 7ec5 c8bd 8f9b a2bc
00000060: ca48 d7bd afb6 033e 68e2 71bc 211e dcbd
00000070: 2dfa e43d c40b 513e df71 703d e668 9dbd
00000080: 6b3c 35bb 6d47 6ebc bf94 1d3e 4e7c 8dbc
00000090: d53c 49bd 6815 71bd bb48 81bc 2450 aebc
000000a0: 1a38 60bd 7f89 a8bd 8491 a1bc cc1b 063c
000000b0: 845f 47bd 6ef4 143e 7ad7 dabd 1b4c 92bd
000000c0: 4aa7 0f3e 5689 1c3c de36 5f3c 93c4 b6bc
000000d0: 93a7 f9bd ac21 83bc c4bf 57be 99eb da3c
000000e0: 74fc e03c 4cee e1bd 4982 0d3c d0f5 20bd
000000f0: da79 c7bd fa30 e3bd 3cdd b1bd aae9 2e3d
00000100: 92cf 1fbe dd90 fdbd 63e6 043c 07c6 8cbd
00000110: b714 0dbd f04e 613d a92b 2cbd 2bf6 a6bd
00000120: adf2 1b3d 3ff8 a0bd b659 38bc 5e59 aebd
00000130: d26a dabb 2c6a cfbd 6ef6 02bd 66b0 8f3c
00000140: c2b6 783d b5ce 393b 4fb4 53bd 0c3c 4d3e
00000150: 8307 8bbd 17d8 d63d c3ad b43d 85a0 40bc
00000160: c4e3 153c 7f64 1fbd fb65 22bb 5c22 c83c
00000170: 8093 253d 059d 8bbd 445a 85bc d7d5 39be
00000180: 6191 14bd edbc 15bd 5f06 9c3c 6e3c cdbd
00000190: 178e f9bc 7f03 90bd 3225 9ebd ba40 f2bc
000001a0: 1dcf f4bc ef25 d1bd fe71 22bd 9783 febd
000001b0: b56f 94bd 44ae 83bd f390 9cbc 0f21 2cbd
000001c0: b487 16bd caff 20bd c123 7cbc cdeb 43bd
000001d0: 3901 98bc fbc5 8cbd c1fa 183d df76 92bd
000001e0: cdfb afbd 9aca 8bbd fba7 b0bd cdb1 c8bd
000001f0: 1baf 9ebd 15d0 56bd 8296 7f3c befa fc3b

WNN.WNN.6.weight f4 [6, 128]
-0.057733253 -0.012315489 -0.08519135 0.011571455 -0.01701497 0.05078405 -0.023072049 -0.1411926
-0.04482971 0.11267471 -0.01936779 -0.07645337 0.0043695755 -0.066096194 -0.0054559284 -0.07154437
-0.13492407 0.012266568 0.06837913 0.055736486 0.04747638 0.025686927 0.009997845 -0.057393104
0.044170674 -0.111151814 -0.051091086 0.12940055 -0.010110354 -0.09499704 0.11406211 0.07182294
-0.02399774 -0.025418712 0.015044699 0.057632133 0.04687834 -0.04385897 -0.24909288 0.033284564
-0.0053631696 -0.09373 -0.059285674 0.09581129 -0.008557106 -0.031632062 -0.062158093 -0.06840179
-0.13973913 -0.06999347 -0.11625722 0.047405638 -0.005980452 0.008313777 0.032436896 -0.038213458
-0.04323686 -0.007509128 -0.009757615 0.052081592 0.052140173 -0.02811257 -0.020515945 -0.11972702
-0.1958475 0.016911592 0.07088918 0.07888857 -0.005581054 0.02017428 -0.04756472 -0.03350732
-0.12081258 0.049520783 -0.09970733 0.057747148 -0.08653503 -0.01670695 -0.04010904 0.010149699
0.073053606 0.054981735 -0.00093536 -0.10579364 0.018729905 -0.019608233 -0.050536912 0.005318892
0.00088499935 -0.082181714 -0.04225722 0.08833508 0.082751855 0.0072107767 -0.07458238 0.08657407
-0.0073834816 -0.017587556 -0.009515016 -0.07433499 -0.19280675 -0.053256016 0.09315547 0.002376054
0.0029150208 -0.054792754 -0.010633879 0.062118765 0.04868722 -0.038186707 0.0021336926 -0.054379173
0.15177739 0.034506105 -0.035570562 0.044938657 0.053101137 0.060208276 -0.05583755 0.05011245
-0.018240515 -0.024573708 0.092539534 0.06846625 0.015616973 -0.08177642 -0.017864456 0.0045419526
0.005659882 -0.06070468 0.040351246 0.066708215 0.06924346 -0.11063975 0.050529156 0.13577048
-0.09305545 0.08467395 -0.010278363 0.026216349 0.057056453 0.08756757 0.015375424 0.0742639
0.08701804 -0.0657944 -0.049032755 0.011881923 -0.023945337 -0.022066023 -0.080955245 -0.012925446
-0.0007277151 0.22400843 0.066331215 -0.021343587 -0.0039768172 0.063338414 0.032042865 -0.0042004744
-0.010179543 0.016440997 0.029336093 0.02260665 -0.029429749 0.084747046 -0.01814151 -0.0030022473
-0.01920856 -0.03353685 -0.067061104 0.0146096 0.013738354 0.071833886 -0.012164673 0.026900347
0.12355827 -0.012008279 -0.03711164 0.02304088 -0.019226547 0.047768064 -0.02041865 -0.018804243
-0.015172363 -0.010991138 -0.022848057 -0.03289183 0.0135608725 0.05759244 -0.04716548 -0.014472085
-0.077337414 -0.01434091 0.044870134 -0.0017525024 0.013412742 -0.011957458 -0.009670483 0.055591486
-0.010998717 0.068569556 0.0051696417 0.007083042 -0.019065535 0.060948648 0.097113386 0.00083145365
0.025461936 0.0064145224 -0.0039020071 0.14352402 0.090767756 0.08792469 -0.0010257268 -0.01053229
0.018672116 -0.016262243 0.054887544 -0.038737584 0.023522021 0.04461731 -0.029631354 0.17501824
-0.04413025 -0.021744065 -0.001697188 0.078237 -0.0011882909 0.07854953 0.017980246 -0.043764096
-0.015822804 0.06396749 -0.06536857 -0.018616257 0.020131713 -0.04817385 -0.04298397 -0.037948214
0.018516637 0.07115936 0.041031 -0.060758095 -0.008845121 0.011916942 0.005008421 -0.075522885
0.07360972 -0.052963596 -0.024161387 -0.07829635 -0.039662216 0.04883935 -0.022565601 -0.03003441
00000000: b479 6cbd e8c6 49bc cd78 aebd 3396 3d3c
00000010: fa62 8bbc f002 503d 9801 bdbc cb94 10be
00000020: 5c9f 37bd 00c2 e63d 33a9 9ebc 9693 9cbd
00000030: a82e 8f3b 715d 87bd a5c7 b2bb db85 92bd
00000040: 8929 0abe b7f9 483c 5b0a 8c3d f14b 643d
00000050: 9876 423d 646d d23c 00ce 233c 0815 6bbd
00000060: 4fec 343d 90a3 e3bd e344 51bd 9481 043e
00000070: e6a5 25bc cf8d c2bd 6599 e93d e817 933d
00000080: e996 c4bc e73a d0bc 0b7e 763c ac0f 6c3d
00000090: 8103 403d 77a5 33bd 3412 7fbe 6555 083d
000000a0: 87bd afbb 84f5 bfbd 89d5 72bd b638 c43d
000000b0: 1b33 0cbc 9f90 01bd 7c99 7ebd 3d16 8cbd
000000c0: c617 0fbe bd58 8fbd 4418 eebd 6a2c 423d
000000d0: abf7 c3bb 8236 083c 8ddc 043d b785 1cbd
000000e0: 2219 31bd 220f f6bb 67de 1fbc 8253 553d
000000f0: ef90 553d 554c e6bc 0e11 a8bc 7133 f5bd
00000100: 3f8c 48be 2e8a 8a3c 592e 913d 5590 a13d
00000110: 46e1 b6bb 8844 a53c 39d3 42bd f93e 09bd
00000120: 966c f7bd 4ed6 4a3d 5b33 ccbd 4688 6c3d
00000130: 4739 b1bd 03dd 88bc 6049 24bd ec4a 263c
00000140: 219d 953d 8734 613d f232 75ba 56aa d8bd
00000150: 756f 993c 72a1 a0bc cbff 4ebd 1a4a ae3b
00000160: 4dff 673a e34e a8bd e815 2dbd 06e9 b43d
00000170: ce79 a93d 6148 ec3b a6be 98bd bf4d b13d
00000180: 22f1 f1bb c713 90bc dfe4 1bbc f13c 98bd
00000190: 226f 45be fb22 5abd 4cc8 be3d 92b7 1b3b
000001a0: ef09 3f3b 5e6e 60bd b939 2ebc 3f70 7e3d
000001b0: 406c 473d aa69 1cbd 6cd5 0b3b b2bc 5ebd
000001c0: 886b 1b3e 4656 0d3d 70b2 11bd 9911 383d
000001d0: 9480 593d f49c 763d eab5 64bd b642 4d3d
000001e0: 226d 95bc cd4e c9bc 5e85 bd3d 0938 8c3d
000001f0: 55de 7f3c 657a a7bd 7b58 92bc a9d4 943b
00000200: 8876 b93b 78a5 78bd 5947 253d 519e 883d
00000210: 84cf 8d3d 1897 e2bd a9f7 4e3d 6b07 0b3e
00000220: db93 bebd 8969 ad3d 9466 28bc abc3 d63c
00000230: 07b4 693d a056 b33d 34e9 7b3c ac17 983d
00000240: 8436 b23d 37bf 86bd 92d6 48bd 66ac 423c
00000250: 0329 c4bc cec3 b4bc ddcb a5bd 40c5 53bc
00000260: 22c4 3eba 7762 653e a9d8 873d bfd8 aebc
00000270: f64f 82bb 92b7 813d 613f 033d 22a4 89bb
00000280: 19c8 26bc 45af 863c 3f52 f03c 9531 b93c
00000290: a816 f1bc dc8f ad3d 819d 94bc 5ac1 44bb
000002a0: 455b 9dbc f05d 09bd 5557 89bd 1b5d 6f3c
000002b0: d516 613c a51d 933d 564e 47bc 1e5e dc3c
000002c0: 1e0c fd3d 5fbe 44bc 6002 18bd 3ac0 bc3c
000002d0: fe80 9dbc 72a8 433d 0345 a7bc 5b0b 9abc
000002e0: 8195 78bc 2d14 34bc d92b bbbc 95b9 06bd
000002f0: 6c2e 5e3c 0de6 6b3d 9730 41bd 531c 6dbc
00000300: 1463 9ebd 23f6 6abc bfc9 373d 39b4 e5ba
00000310: 1ec1 5b3c 37e9 43bc f270 1ebc e6b3 633d
00000320: f633 34bc 326e 8c3d 1966 a93b dd18 e83b
00000330: 532f 9cbc 4aa5 793d 62e3 c63d e9f5 593a
00000340: 8d95 d03c ea30 d23b d1b8 7fbb f6f7 123e
00000350: 72e4 b93d dc11 b43d ae71 86ba a08f 2cbc
00000360: 44f6 983c 6538 85bc c3d1 603d 4dab 1ebd
00000370: 41b1 c03c a4c0 363d 74bd f2bc fb37 333e
00000380: ecc1 34bd 9c20 b2bc 2e74 deba b83a a03d
00000390: 6dc0 9bba 93de a03d 4f4b 933c fb41 33bd
000003a0: d39e 81bc 6301 833d f5df 85bd 1f81 98bc
000003b0: 43eb a43c f151 45bd f60f 30bd 966f 1bbd
000003c0: 34b0 973c 00bc 913d 1f10 283d 7bdd 78bd
000003d0: 20eb 10bc 473f 433c ae1d a43b beab 9abd
000003e0: b1c0 963d 5bf0 58bd 1aee c5bc d659 a0bd
000003f0: d974 22bd c50b 483d 7fdb b8bc b90a f6bc

WNN.WNN.6.bias f4 [6]
-0.056137934 0.19717845 -0.13147639 -0.053799074 -0.20773646 -0.10389897
00000000: e4f0 65bd 26e9 493e bfa1 06be 6b5c 5cbd
00000010: deb8 54be fcc8 d4bd

GradHNN.HNN.0.weight f4 [128, 4]
-0.0918097 1.2929405 -0.07691711 -0.037064828 -0.11973639 -1.1419483 -0.0419957 -0.019997995
-0.23802954 -1.3198373 -0.08429709 -0.20196608 0.5220168 -1.0031598 0.05767687 0.15484974
0.19634436 -0.6984853 0.098795794 0.08124233 0.013978444 -0.9507297 -0.25083578 -0.1728996
-0.47526845 0.4008941 0.34002182 0.087872766 0.09980253 1.3568804 -0.034027375 0.24935915
0.010551975 0.844939 0.18824323 0.23473054 -0.041696653 -0.89033955 -0.3797028 -0.092492394
0.6165399 -1.1636039 -0.47047433 -0.24559063 0.20901679 1.1682041 -0.094279855 -0.15918526
0.66610765 -0.91924864 0.14482309 -0.34783348 -0.33134112 -1.2510773 0.14544943 0.17356968
0.81656396 -0.6753777 0.35508853 0.11459893 -0.16538484 1.1234509 0.30078974 0.34869266
0.23144181 1.1109396 -0.2815661 -0.19309379 -0.9179462 0.55863816 0.017800132 -0.031135276
0.58590406 -0.4411633 0.22921592 -0.006340988 0.5614074 0.6779258 -0.001051889 -0.110163905
1.0484498 -0.89870435 0.40690795 0.09752543 0.24937424 -1.0665996 -0.40355927 -0.25863612
-1.009236 0.33306998 -0.048075262 0.052677315 -0.5240601 1.592075 -0.22511275 -0.40265748
-0.5465112 -1.1503855 -0.24472702 -0.25658125 -0.23057783 0.46291173 -0.043244123 0.014327168
-0.9058268 0.80343443 -0.39536375 -0.13182306 0.05879405 -0.9114482 -0.1399955 -0.12465533
0.37626594 -1.0208703 -0.09874563 0.16388321 0.90967613 -0.61918265 -0.08231795 -0.2189667
0.33145243 -0.87744594 -0.4096307 -0.3556312 -0.8306104 0.70318687 -0.32649848 -0.079724625
0.21082833 -0.98908323 -0.22541009 0.07014374 0.5886408 -0.85451883 -0.039599363 -0.30092102
-0.2425534 0.67695564 0.29434514 0.120083526 -0.66793525 0.93833387 0.26575562 -0.21049346
0.3341065 1.1508433 -0.12085441 -0.16196132 0.28049612 -0.794011 0.04053564 -0.15209682
0.34380865 -1.139252 0.29939783 -0.29481903 -0.33089548 1.1170183 0.355517 0.3191024
-0.9830788 0.07848957 0.2169666 0.060082156 0.38670108 0.8489513 -0.33240265 -0.013698632
-0.20114309 -1.1862807 0.058969915 -0.12811974 0.015774254 0.6638039 0.21678323 0.05921709
-0.20534462 -1.0822712 0.24629813 0.09116734 -0.034790896 -0.714976 0.17209929 -0.1441218
-0.55010617 1.0483916 0.4220994 0.21991137 0.48600996 -1.0505154 0.09633016 -0.119761266
-0.27867183 -0.8771245 -0.28451234 0.08719459 -0.98552775 0.5565689 -0.09192984 0.095597446
0.54432356 -0.5019068 -0.009579614 0.21514417 0.24777849 -0.7434175 0.10331237 0.18744661
0.83439887 0.31944513 0.20634428 0.07147806 0.09491827 -0.90800667 -0.26687318 -0.31163102
-0.3986927 1.3049833 -0.33772257 0.3305243 -0.8682292 1.1555037 0.06767628 -0.39108056
0.15878797 -0.9097422 0.07420569 -0.09792158 0.7128854 0.8571544 -0.017706284 -0.15240927
0.5104988 -1.1738002 0.24122225 -0.25022963 0.6655987 -0.8785653 -0.05000294 0.28792852
-0.83770657 0.6813926 0.104357354 -0.22370118 0.11279006 1.1010902 0.06997741 -0.2041762
0.82822555 -0.8753404 -0.05557772 0.03556466 -0.18404455 0.8463869 -0.12059937 -0.10081269
00000000: b906 bcbd 137f a53f b886 9dbd 4ad1 17bd
00000010: 5a38 f5bd 5d2b 92bf af03 2cbd d6d2 a3bc
00000020: 04be 73be 6ef0 a8bf f4a3 acbd 32d0 4ebe
00000030: e5a2 053f 8a67 80bf 953e 6c3d ee90 1e3e
00000040: 7f0e 493e efcf 32bf 7355 ca3d 6162 a63d
00000050: d805 653c 0663 73bf 8c6d 80be 980c 31be
00000060: 6356 f3be fe41 cd3e 5717 ae3e a3f6 b33d
00000070: 4565 cc3d 42ae ad3f 4a60 0bbd 0158 7f3e
00000080: 31e2 2c3c ec4d 583f d5c2 403e 345d 703e
00000090: 1cca 2abd 4bed 63bf 6868 c2be a76c bdbd
000000a0: 8fd5 1d3f f9f0 94bf 03e2 f0be 1c7c 7bbe
000000b0: 7f08 563e b687 953f cc15 c1bd 7601 23be
000000c0: 0886 2a3f e153 6bbf 814c 143e 3b17 b2be
000000d0: 8ba5 a9be 4d23 a0bf b2f0 143e 40bc 313e
000000e0: 560a 513f 8ee5 2cbf 2ace b53e d8b2 ea3d
000000f0: a55a 29be 3dcd 8f3f 1d01 9a3e d887 b23e
00000100: 15ff 6c3e 4533 8e3f 6f29 90be 61ba 45be
00000110: 86fe 6abf e902 0f3f 95d1 913c 680f ffbc
00000120: cffd 153f 28e0 e1be 94b7 6a3e 10c8 cfbb
00000130: 65b8 0f3f 8c8c 2d3f 8adf 89ba 9d9d e1bd
00000140: 9a33 863f 7d11 66bf 3d56 d03e 6abb c73d
00000150: f65b 7f3e 5686 88bf 529f cebe f46b 84be
00000160: a52e 81bf 2688 aa3e 91ea 44bd 2bc4 573d
00000170: cd28 06bf 1dc9 cb3f f583 66be 1f29 cebe
00000180: 28e8 0bbf d53f 93bf b899 7abe 9e5e 83be
00000190: 981c 6cbe c402 ed3e c020 31bd 80bc 6a3c
000001a0: 44e4 67bf e1ad 4d3f 1e6d cabe a0fc 06be
000001b0: 08d2 703d ab54 69bf fb5a 0fbe 4b4b ffbd
000001c0: eea5 c03e e1ab 82bf 263b cabd 00d1 273e
000001d0: 89e0 683f c182 1ebf 5096 a8bd ce38 60be
000001e0: 22b4 a93e 4ca0 60bf 1dbb d1be 4b15 b6be
000001f0: e2a2 54bf 0e04 343f cf2a a7be aa46 a3bd
00000200: 62e3 573e 8f34 7dbf e7d1 66be 85a7 8f3d
00000210: 2ab1 163f bfc1 5abf f132 22bd 5212 9abe
00000220: eb5f 78be f74c 2d3f 68b4 963e 5aee f53d
00000230: cefd 2abf a636 703f 1f11 883e 998b 57be
00000240: 0210 ab3e d54e 933f 8482 f7bd 30d9 25be
00000250: 309d 8f3e 4e44 4bbf b308 263d 45bf 1bbe
00000260: b007 b03e 02d3 91bf ac4a 993e 85f2 96be
00000270: 226b a9be 75fa 8e3f 5306 b63e 6461 a33e
00000280: 0dab 7bbf 24bf a03d 7e2c 5e3e b518 763d
00000290: affd c53e df54 593f ae30 aabe 3a70 60bc
000002a0: 74f8 4dbe 0cd8 97bf 708a 713d d231 03be
000002b0: 0239 813c 0def 293f 6cfc 5d3e 9f8d 723d
000002c0: dc45 52be dd87 8abf 9435 7c3e f1b5 ba3d
000002d0: e680 0ebd ab08 37bf cc3a 303e aa94 13be
000002e0: c2d3 0cbf b231 863f 6a1d d83e 7230 613e
000002f0: 4cd6 f83e 4a77 86bf bf48 c53d 6545 f5bd
00000300: 13ae 8ebe 3b8b 60bf 9aab 91be 1493 b23d
00000310: 8c4b 7cbf 4d7b 0e3f b645 bcbd 98c8 c33d
00000320: ca58 0b3f f77c 00bf d0f3 1cbc c14e 5c3e
00000330: a5b9 7d3e 9c50 3ebf 7095 d33d 01f2 3f3e
00000340: 2a9b 553f 508e a33e ea4b 533e 1763 923d
00000350: 8364 c23d 2073 68bf 9aa3 88be 1a8e 9fbe
00000360: 7321 ccbe b109 a73f f9e9 acbe 7b3a a93e
00000370: 4544 5ebf 8ce7 933f dd99 8a3d b63b c8be
00000380: 5099 223e dde4 68bf 27f9 973d 1c8b c8bd
00000390: a87f 363f 796e 5b3f c50c 91bc 2d11 1cbe
000003a0: 0db0 023f 163f 96bf f702 773e 191e 80be
000003b0: ad64 2a3f a8e9 60bf e2cf 4cbd 5e6b 933e
000003c0: f073 56bf bf6f 2e3f 4fb9 d53d ec11 65be
000003d0: 7afe e63d 86f0 8c3f 5150 8f3d 9113 51be
000003e0: 9706 543f 4f16 60bf 77a5 63bd 40ac 113d
000003f0: 2d76 3cbe d0ac 583f cdfc f6bd e276 cebd

GradHNN.HNN.0.bias f4 [128]
0.59025246 0.43187654 -0.5411049 -0.064247645 0.09368326 0.39495832 -0.17912167 -0.46126792
-0.39196065 -0.2465108 -0.082150035 0.1112609 0.20866305 -0.004612102 0.12412486 0.16092068
0.14555456 0.41957 0.39637598 -0.5159193 -0.1990692 -0.4453956 0.26794085 -0.3443038
-0.49387646 -0.30104655 -0.1410161 0.41234598 -0.13872823 -0.16043447 0.1543016 0.15599374
-0.13676603 -0.37691092 0.020871265 0.27652392 -0.0042510624 0.31103933 -0.22968747 -0.12950957
0.13458978 -0.44638306 0.09907989 -0.412209 -0.25546777 0.22277169 0.073816724 0.15036076
0.13447341 0.14617398 -0.36884427 0.15990941 0.19933511 -0.15173705 0.25346544 -0.1672419
0.12434291 0.23685205 -0.4077802 0.11910691 0.5002617 -0.52959347 0.3674739 -0.11021083
0.13322218 -0.24385267 0.21919264 -0.2851063 -0.052016098 0.055580165 -0.0035903621 -0.2360499
-0.18859331 0.45476294 0.3242842 0.26995972 0.2206947 -0.043319575 0.5018478 0.37308097
-0.4587582 0.19206086 -0.44905332 -0.39017427 0.15553275 -0.04320473 0.40009192 -0.19900376
-0.23270844 -0.33147252 0.47373477 -0.3885434 -0.14441726 -0.5335861 -0.11768499 0.34442878
0.33097315 -0.08993475 0.17070606 0.10303991 -0.5221435 -0.3302721 -0.24774957 -0.031108052
-0.00043637265 -0.2390673 0.40724906 0.07061777 0.16012925 -0.3406633 0.02576704 0.36126193
-0.2140476 0.17260617 -0.17376217 0.36162826 -0.17164606 0.002497146 -0.43045393 0.26671267
0.39202675 0.3534248 0.17278847 0.12077212 -0.32524997 0.0425212 -0.1200234 0.4184238
00000000: c91a 173f ec1e dd3e da85 0abf 4594 83bd
00000010: 02dd bf3d fa37 ca3e ac6b 37be 4f2b ecbe
00000020: 11af c8be 546d 7cbe 473e a8bd c1dc e33d
00000030: c4ab 553e 1e21 97bb 2d35 fe3d 64c8 243e
00000040: 410c 153e e1d1 d63e cbf1 ca3e 4a13 04bf
00000050: ccd8 4bbe e40a e4be 8b2f 893e 9648 b0be
00000060: 60dd fcbe c622 9abe 8666 10be 031f d33e
00000070: c60e 0ebe ef48 24be 3d01 1e3e d3bc 1f3e
00000080: 650c 0cbe 78fa c0be 37fa aa3c 8b94 8d3e
00000090: 7f4c 8bbb 8c40 9f3e 3133 6bbe 289e 04be
000000a0: e7d1 093e 528c e4be 66ea ca3d 0f0d d3be
000000b0: accc 82be 431e 643e 392d 973d 2cf8 193e
000000c0: 66b3 093e a2ae 153e 28d9 bcbe 4bbf 233e
000000d0: 811e 4c3e f560 1bbe 39c6 813e 7641 2bbe
000000e0: 7fa7 fe3d 5889 723e 91c8 d0be 53ee f33d
000000f0: 2711 003f 7093 07bf 8a25 bc3e 37b6 e1bd
00000100: 656b 083e 84b4 79be 0974 603e 74f9 91be
00000110: d50e 55bd 07a8 633d 484c 6bbb 11b7 71be
00000120: 9b1e 41be b0d6 e83e 9408 a63e 2938 8a3e
00000130: cbfd 613e de6f 31bd 1979 003f 7804 bf3e
00000140: 5be2 eabe 9aab 443e 51ea e5be ecc4 c7be
00000150: fa43 1f3e 71f7 30bd d9d8 cc3e a4c7 4bbe
00000160: 1f4b 6ebe c4b6 a9be 5d8d f23e 29ef c6be
00000170: 1ee2 13be 1999 08bf d404 f1bd f858 b03e
00000180: 5075 a93e b62f b8bd 92cd 2e3e 9706 d33d
00000190: 32ab 05bf 6d19 a9be 10b2 7dbe 50d6 febc
000001a0: f2c8 e4b9 0fce 74be f382 d03e 0da0 903d
000001b0: ecf8 233e 6c6b aebe 6615 d33c 53f7 b83e
000001c0: 4b2f 5bbe acbf 303e b6ee 31be 5727 b93e
000001d0: fcc3 2fbe 28a7 233b 7564 dcbe 908e 883e
000001e0: bbb7 c83e 18f4 b43e 76ef 303e 6057 f73d
000001f0: 2a87 a6be b62a 2e3d d4ce f5bd a53b d63e
